{"format": "graph-model", "generatedBy": "2.4.1", "convertedBy": "TensorFlow.js Converter v3.15.0", "signature": {"inputs": {"feature": {"name": "feature:0", "dtype": "DT_FLOAT", "tensorShape": {"dim": [{"size": "-1"}, {"size": "-1"}, {"size": "-1"}, {"size": "3"}]}}}, "outputs": {"label": {"name": "Identity:0", "dtype": "DT_FLOAT", "tensorShape": {"dim": [{"size": "-1"}, {"size": "-1"}, {"size": "-1"}, {"size": "1"}]}}}}, "modelTopology": {"node": [{"name": "StatefulPartitionedCall/Skinny/conv2d_86/Conv2D/ReadVariableOp", "op": "Const", "attr": {"dtype": {"type": "DT_FLOAT"}, "value": {"tensor": {"dtype": "DT_FLOAT", "tensorShape": {"dim": [{"size": "1"}, {"size": "1"}, {"size": "50"}, {"size": "4"}]}}}}}, {"name": "StatefulPartitionedCall/Skinny/conv2d_86/BiasAdd/ReadVariableOp", "op": "Const", "attr": {"value": {"tensor": {"dtype": "DT_FLOAT", "tensorShape": {"dim": [{"size": "4"}]}}}, "dtype": {"type": "DT_FLOAT"}}}, {"name": "StatefulPartitionedCall/Skinny/conv2d_87/Conv2D/ReadVariableOp", "op": "Const", "attr": {"value": {"tensor": {"dtype": "DT_FLOAT", "tensorShape": {"dim": [{"size": "1"}, {"size": "1"}, {"size": "50"}, {"size": "4"}]}}}, "dtype": {"type": "DT_FLOAT"}}}, {"name": "StatefulPartitionedCall/Skinny/conv2d_87/BiasAdd/ReadVariableOp", "op": "Const", "attr": {"value": {"tensor": {"dtype": "DT_FLOAT", "tensorShape": {"dim": [{"size": "4"}]}}}, "dtype": {"type": "DT_FLOAT"}}}, {"name": "StatefulPartitionedCall/Skinny/conv2d_88/Conv2D/ReadVariableOp", "op": "Const", "attr": {"dtype": {"type": "DT_FLOAT"}, "value": {"tensor": {"dtype": "DT_FLOAT", "tensorShape": {"dim": [{"size": "3"}, {"size": "3"}, {"size": "4"}, {"size": "4"}]}}}}}, {"name": "StatefulPartitionedCall/Skinny/conv2d_88/BiasAdd/ReadVariableOp", "op": "Const", "attr": {"value": {"tensor": {"dtype": "DT_FLOAT", "tensorShape": {"dim": [{"size": "4"}]}}}, "dtype": {"type": "DT_FLOAT"}}}, {"name": "StatefulPartitionedCall/Skinny/conv2d_89/Conv2D/ReadVariableOp", "op": "Const", "attr": {"value": {"tensor": {"dtype": "DT_FLOAT", "tensorShape": {"dim": [{"size": "1"}, {"size": "1"}, {"size": "50"}, {"size": "4"}]}}}, "dtype": {"type": "DT_FLOAT"}}}, {"name": "StatefulPartitionedCall/Skinny/conv2d_89/BiasAdd/ReadVariableOp", "op": "Const", "attr": {"value": {"tensor": {"dtype": "DT_FLOAT", "tensorShape": {"dim": [{"size": "4"}]}}}, "dtype": {"type": "DT_FLOAT"}}}, {"name": "StatefulPartitionedCall/Skinny/conv2d_90/Conv2D/ReadVariableOp", "op": "Const", "attr": {"value": {"tensor": {"dtype": "DT_FLOAT", "tensorShape": {"dim": [{"size": "5"}, {"size": "5"}, {"size": "4"}, {"size": "4"}]}}}, "dtype": {"type": "DT_FLOAT"}}}, {"name": "StatefulPartitionedCall/Skinny/conv2d_90/BiasAdd/ReadVariableOp", "op": "Const", "attr": {"value": {"tensor": {"dtype": "DT_FLOAT", "tensorShape": {"dim": [{"size": "4"}]}}}, "dtype": {"type": "DT_FLOAT"}}}, {"name": "StatefulPartitionedCall/Skinny/conv2d_76/Conv2D/ReadVariableOp", "op": "Const", "attr": {"value": {"tensor": {"dtype": "DT_FLOAT", "tensorShape": {"dim": [{"size": "1"}, {"size": "1"}, {"size": "106"}, {"size": "9"}]}}}, "dtype": {"type": "DT_FLOAT"}}}, {"name": "StatefulPartitionedCall/Skinny/conv2d_76/BiasAdd/ReadVariableOp", "op": "Const", "attr": {"value": {"tensor": {"dtype": "DT_FLOAT", "tensorShape": {"dim": [{"size": "9"}]}}}, "dtype": {"type": "DT_FLOAT"}}}, {"name": "StatefulPartitionedCall/Skinny/conv2d_77/Conv2D/ReadVariableOp", "op": "Const", "attr": {"value": {"tensor": {"dtype": "DT_FLOAT", "tensorShape": {"dim": [{"size": "1"}, {"size": "1"}, {"size": "106"}, {"size": "9"}]}}}, "dtype": {"type": "DT_FLOAT"}}}, {"name": "StatefulPartitionedCall/Skinny/conv2d_77/BiasAdd/ReadVariableOp", "op": "Const", "attr": {"value": {"tensor": {"dtype": "DT_FLOAT", "tensorShape": {"dim": [{"size": "9"}]}}}, "dtype": {"type": "DT_FLOAT"}}}, {"name": "StatefulPartitionedCall/Skinny/conv2d_78/Conv2D/ReadVariableOp", "op": "Const", "attr": {"value": {"tensor": {"dtype": "DT_FLOAT", "tensorShape": {"dim": [{"size": "3"}, {"size": "3"}, {"size": "9"}, {"size": "9"}]}}}, "dtype": {"type": "DT_FLOAT"}}}, {"name": "StatefulPartitionedCall/Skinny/conv2d_78/BiasAdd/ReadVariableOp", "op": "Const", "attr": {"value": {"tensor": {"dtype": "DT_FLOAT", "tensorShape": {"dim": [{"size": "9"}]}}}, "dtype": {"type": "DT_FLOAT"}}}, {"name": "StatefulPartitionedCall/Skinny/conv2d_79/Conv2D/ReadVariableOp", "op": "Const", "attr": {"value": {"tensor": {"dtype": "DT_FLOAT", "tensorShape": {"dim": [{"size": "1"}, {"size": "1"}, {"size": "106"}, {"size": "9"}]}}}, "dtype": {"type": "DT_FLOAT"}}}, {"name": "StatefulPartitionedCall/Skinny/conv2d_79/BiasAdd/ReadVariableOp", "op": "Const", "attr": {"dtype": {"type": "DT_FLOAT"}, "value": {"tensor": {"dtype": "DT_FLOAT", "tensorShape": {"dim": [{"size": "9"}]}}}}}, {"name": "StatefulPartitionedCall/Skinny/conv2d_80/Conv2D/ReadVariableOp", "op": "Const", "attr": {"value": {"tensor": {"dtype": "DT_FLOAT", "tensorShape": {"dim": [{"size": "5"}, {"size": "5"}, {"size": "9"}, {"size": "9"}]}}}, "dtype": {"type": "DT_FLOAT"}}}, {"name": "StatefulPartitionedCall/Skinny/conv2d_80/BiasAdd/ReadVariableOp", "op": "Const", "attr": {"value": {"tensor": {"dtype": "DT_FLOAT", "tensorShape": {"dim": [{"size": "9"}]}}}, "dtype": {"type": "DT_FLOAT"}}}, {"name": "StatefulPartitionedCall/Skinny/conv2d_66/Conv2D/ReadVariableOp", "op": "Const", "attr": {"dtype": {"type": "DT_FLOAT"}, "value": {"tensor": {"dtype": "DT_FLOAT", "tensorShape": {"dim": [{"size": "1"}, {"size": "1"}, {"size": "218"}, {"size": "19"}]}}}}}, {"name": "StatefulPartitionedCall/Skinny/conv2d_66/BiasAdd/ReadVariableOp", "op": "Const", "attr": {"value": {"tensor": {"dtype": "DT_FLOAT", "tensorShape": {"dim": [{"size": "19"}]}}}, "dtype": {"type": "DT_FLOAT"}}}, {"name": "StatefulPartitionedCall/Skinny/conv2d_67/Conv2D/ReadVariableOp", "op": "Const", "attr": {"value": {"tensor": {"dtype": "DT_FLOAT", "tensorShape": {"dim": [{"size": "1"}, {"size": "1"}, {"size": "218"}, {"size": "19"}]}}}, "dtype": {"type": "DT_FLOAT"}}}, {"name": "StatefulPartitionedCall/Skinny/conv2d_67/BiasAdd/ReadVariableOp", "op": "Const", "attr": {"value": {"tensor": {"dtype": "DT_FLOAT", "tensorShape": {"dim": [{"size": "19"}]}}}, "dtype": {"type": "DT_FLOAT"}}}, {"name": "StatefulPartitionedCall/Skinny/conv2d_68/Conv2D/ReadVariableOp", "op": "Const", "attr": {"value": {"tensor": {"dtype": "DT_FLOAT", "tensorShape": {"dim": [{"size": "3"}, {"size": "3"}, {"size": "19"}, {"size": "19"}]}}}, "dtype": {"type": "DT_FLOAT"}}}, {"name": "StatefulPartitionedCall/Skinny/conv2d_68/BiasAdd/ReadVariableOp", "op": "Const", "attr": {"dtype": {"type": "DT_FLOAT"}, "value": {"tensor": {"dtype": "DT_FLOAT", "tensorShape": {"dim": [{"size": "19"}]}}}}}, {"name": "StatefulPartitionedCall/Skinny/conv2d_69/Conv2D/ReadVariableOp", "op": "Const", "attr": {"value": {"tensor": {"dtype": "DT_FLOAT", "tensorShape": {"dim": [{"size": "1"}, {"size": "1"}, {"size": "218"}, {"size": "19"}]}}}, "dtype": {"type": "DT_FLOAT"}}}, {"name": "StatefulPartitionedCall/Skinny/conv2d_69/BiasAdd/ReadVariableOp", "op": "Const", "attr": {"value": {"tensor": {"dtype": "DT_FLOAT", "tensorShape": {"dim": [{"size": "19"}]}}}, "dtype": {"type": "DT_FLOAT"}}}, {"name": "StatefulPartitionedCall/Skinny/conv2d_70/Conv2D/ReadVariableOp", "op": "Const", "attr": {"value": {"tensor": {"dtype": "DT_FLOAT", "tensorShape": {"dim": [{"size": "5"}, {"size": "5"}, {"size": "19"}, {"size": "19"}]}}}, "dtype": {"type": "DT_FLOAT"}}}, {"name": "StatefulPartitionedCall/Skinny/conv2d_70/BiasAdd/ReadVariableOp", "op": "Const", "attr": {"value": {"tensor": {"dtype": "DT_FLOAT", "tensorShape": {"dim": [{"size": "19"}]}}}, "dtype": {"type": "DT_FLOAT"}}}, {"name": "StatefulPartitionedCall/Skinny/conv2d_56/Conv2D/ReadVariableOp", "op": "Const", "attr": {"value": {"tensor": {"dtype": "DT_FLOAT", "tensorShape": {"dim": [{"size": "1"}, {"size": "1"}, {"size": "437"}, {"size": "38"}]}}}, "dtype": {"type": "DT_FLOAT"}}}, {"name": "StatefulPartitionedCall/Skinny/conv2d_56/BiasAdd/ReadVariableOp", "op": "Const", "attr": {"value": {"tensor": {"dtype": "DT_FLOAT", "tensorShape": {"dim": [{"size": "38"}]}}}, "dtype": {"type": "DT_FLOAT"}}}, {"name": "StatefulPartitionedCall/Skinny/conv2d_57/Conv2D/ReadVariableOp", "op": "Const", "attr": {"value": {"tensor": {"dtype": "DT_FLOAT", "tensorShape": {"dim": [{"size": "1"}, {"size": "1"}, {"size": "437"}, {"size": "38"}]}}}, "dtype": {"type": "DT_FLOAT"}}}, {"name": "StatefulPartitionedCall/Skinny/conv2d_57/BiasAdd/ReadVariableOp", "op": "Const", "attr": {"dtype": {"type": "DT_FLOAT"}, "value": {"tensor": {"dtype": "DT_FLOAT", "tensorShape": {"dim": [{"size": "38"}]}}}}}, {"name": "StatefulPartitionedCall/Skinny/conv2d_58/Conv2D/ReadVariableOp", "op": "Const", "attr": {"dtype": {"type": "DT_FLOAT"}, "value": {"tensor": {"dtype": "DT_FLOAT", "tensorShape": {"dim": [{"size": "3"}, {"size": "3"}, {"size": "38"}, {"size": "38"}]}}}}}, {"name": "StatefulPartitionedCall/Skinny/conv2d_58/BiasAdd/ReadVariableOp", "op": "Const", "attr": {"value": {"tensor": {"dtype": "DT_FLOAT", "tensorShape": {"dim": [{"size": "38"}]}}}, "dtype": {"type": "DT_FLOAT"}}}, {"name": "StatefulPartitionedCall/Skinny/conv2d_59/Conv2D/ReadVariableOp", "op": "Const", "attr": {"value": {"tensor": {"dtype": "DT_FLOAT", "tensorShape": {"dim": [{"size": "1"}, {"size": "1"}, {"size": "437"}, {"size": "38"}]}}}, "dtype": {"type": "DT_FLOAT"}}}, {"name": "StatefulPartitionedCall/Skinny/conv2d_59/BiasAdd/ReadVariableOp", "op": "Const", "attr": {"value": {"tensor": {"dtype": "DT_FLOAT", "tensorShape": {"dim": [{"size": "38"}]}}}, "dtype": {"type": "DT_FLOAT"}}}, {"name": "StatefulPartitionedCall/Skinny/conv2d_60/Conv2D/ReadVariableOp", "op": "Const", "attr": {"value": {"tensor": {"dtype": "DT_FLOAT", "tensorShape": {"dim": [{"size": "5"}, {"size": "5"}, {"size": "38"}, {"size": "38"}]}}}, "dtype": {"type": "DT_FLOAT"}}}, {"name": "StatefulPartitionedCall/Skinny/conv2d_60/BiasAdd/ReadVariableOp", "op": "Const", "attr": {"value": {"tensor": {"dtype": "DT_FLOAT", "tensorShape": {"dim": [{"size": "38"}]}}}, "dtype": {"type": "DT_FLOAT"}}}, {"name": "StatefulPartitionedCall/Skinny/conv2d_46/Conv2D/ReadVariableOp", "op": "Const", "attr": {"value": {"tensor": {"dtype": "DT_FLOAT", "tensorShape": {"dim": [{"size": "1"}, {"size": "1"}, {"size": "874"}, {"size": "76"}]}}}, "dtype": {"type": "DT_FLOAT"}}}, {"name": "StatefulPartitionedCall/Skinny/conv2d_46/BiasAdd/ReadVariableOp", "op": "Const", "attr": {"value": {"tensor": {"dtype": "DT_FLOAT", "tensorShape": {"dim": [{"size": "76"}]}}}, "dtype": {"type": "DT_FLOAT"}}}, {"name": "StatefulPartitionedCall/Skinny/conv2d_47/Conv2D/ReadVariableOp", "op": "Const", "attr": {"dtype": {"type": "DT_FLOAT"}, "value": {"tensor": {"dtype": "DT_FLOAT", "tensorShape": {"dim": [{"size": "1"}, {"size": "1"}, {"size": "874"}, {"size": "76"}]}}}}}, {"name": "StatefulPartitionedCall/Skinny/conv2d_47/BiasAdd/ReadVariableOp", "op": "Const", "attr": {"value": {"tensor": {"dtype": "DT_FLOAT", "tensorShape": {"dim": [{"size": "76"}]}}}, "dtype": {"type": "DT_FLOAT"}}}, {"name": "StatefulPartitionedCall/Skinny/conv2d_48/Conv2D/ReadVariableOp", "op": "Const", "attr": {"value": {"tensor": {"dtype": "DT_FLOAT", "tensorShape": {"dim": [{"size": "3"}, {"size": "3"}, {"size": "76"}, {"size": "76"}]}}}, "dtype": {"type": "DT_FLOAT"}}}, {"name": "StatefulPartitionedCall/Skinny/conv2d_48/BiasAdd/ReadVariableOp", "op": "Const", "attr": {"value": {"tensor": {"dtype": "DT_FLOAT", "tensorShape": {"dim": [{"size": "76"}]}}}, "dtype": {"type": "DT_FLOAT"}}}, {"name": "StatefulPartitionedCall/Skinny/conv2d_49/Conv2D/ReadVariableOp", "op": "Const", "attr": {"value": {"tensor": {"dtype": "DT_FLOAT", "tensorShape": {"dim": [{"size": "1"}, {"size": "1"}, {"size": "874"}, {"size": "76"}]}}}, "dtype": {"type": "DT_FLOAT"}}}, {"name": "StatefulPartitionedCall/Skinny/conv2d_49/BiasAdd/ReadVariableOp", "op": "Const", "attr": {"dtype": {"type": "DT_FLOAT"}, "value": {"tensor": {"dtype": "DT_FLOAT", "tensorShape": {"dim": [{"size": "76"}]}}}}}, {"name": "StatefulPartitionedCall/Skinny/conv2d_50/Conv2D/ReadVariableOp", "op": "Const", "attr": {"value": {"tensor": {"dtype": "DT_FLOAT", "tensorShape": {"dim": [{"size": "5"}, {"size": "5"}, {"size": "76"}, {"size": "76"}]}}}, "dtype": {"type": "DT_FLOAT"}}}, {"name": "StatefulPartitionedCall/Skinny/conv2d_50/BiasAdd/ReadVariableOp", "op": "Const", "attr": {"value": {"tensor": {"dtype": "DT_FLOAT", "tensorShape": {"dim": [{"size": "76"}]}}}, "dtype": {"type": "DT_FLOAT"}}}, {"name": "StatefulPartitionedCall/Skinny/conv2d_36/Conv2D/ReadVariableOp", "op": "Const", "attr": {"dtype": {"type": "DT_FLOAT"}, "value": {"tensor": {"dtype": "DT_FLOAT", "tensorShape": {"dim": [{"size": "1"}, {"size": "1"}, {"size": "608"}, {"size": "152"}]}}}}}, {"name": "StatefulPartitionedCall/Skinny/conv2d_36/BiasAdd/ReadVariableOp", "op": "Const", "attr": {"value": {"tensor": {"dtype": "DT_FLOAT", "tensorShape": {"dim": [{"size": "152"}]}}}, "dtype": {"type": "DT_FLOAT"}}}, {"name": "StatefulPartitionedCall/Skinny/conv2d_37/Conv2D/ReadVariableOp", "op": "Const", "attr": {"value": {"tensor": {"dtype": "DT_FLOAT", "tensorShape": {"dim": [{"size": "1"}, {"size": "1"}, {"size": "608"}, {"size": "152"}]}}}, "dtype": {"type": "DT_FLOAT"}}}, {"name": "StatefulPartitionedCall/Skinny/conv2d_37/BiasAdd/ReadVariableOp", "op": "Const", "attr": {"value": {"tensor": {"dtype": "DT_FLOAT", "tensorShape": {"dim": [{"size": "152"}]}}}, "dtype": {"type": "DT_FLOAT"}}}, {"name": "StatefulPartitionedCall/Skinny/conv2d_38/Conv2D/ReadVariableOp", "op": "Const", "attr": {"value": {"tensor": {"dtype": "DT_FLOAT", "tensorShape": {"dim": [{"size": "3"}, {"size": "3"}, {"size": "152"}, {"size": "152"}]}}}, "dtype": {"type": "DT_FLOAT"}}}, {"name": "StatefulPartitionedCall/Skinny/conv2d_38/BiasAdd/ReadVariableOp", "op": "Const", "attr": {"value": {"tensor": {"dtype": "DT_FLOAT", "tensorShape": {"dim": [{"size": "152"}]}}}, "dtype": {"type": "DT_FLOAT"}}}, {"name": "StatefulPartitionedCall/Skinny/conv2d_39/Conv2D/ReadVariableOp", "op": "Const", "attr": {"value": {"tensor": {"dtype": "DT_FLOAT", "tensorShape": {"dim": [{"size": "1"}, {"size": "1"}, {"size": "608"}, {"size": "152"}]}}}, "dtype": {"type": "DT_FLOAT"}}}, {"name": "StatefulPartitionedCall/Skinny/conv2d_39/BiasAdd/ReadVariableOp", "op": "Const", "attr": {"value": {"tensor": {"dtype": "DT_FLOAT", "tensorShape": {"dim": [{"size": "152"}]}}}, "dtype": {"type": "DT_FLOAT"}}}, {"name": "StatefulPartitionedCall/Skinny/conv2d_40/Conv2D/ReadVariableOp", "op": "Const", "attr": {"value": {"tensor": {"dtype": "DT_FLOAT", "tensorShape": {"dim": [{"size": "5"}, {"size": "5"}, {"size": "152"}, {"size": "152"}]}}}, "dtype": {"type": "DT_FLOAT"}}}, {"name": "StatefulPartitionedCall/Skinny/conv2d_40/BiasAdd/ReadVariableOp", "op": "Const", "attr": {"value": {"tensor": {"dtype": "DT_FLOAT", "tensorShape": {"dim": [{"size": "152"}]}}}, "dtype": {"type": "DT_FLOAT"}}}, {"name": "StatefulPartitionedCall/Skinny/conv2d_41/Conv2D/ReadVariableOp", "op": "Const", "attr": {"value": {"tensor": {"dtype": "DT_FLOAT", "tensorShape": {"dim": [{"size": "1"}, {"size": "1"}, {"size": "608"}, {"size": "152"}]}}}, "dtype": {"type": "DT_FLOAT"}}}, {"name": "StatefulPartitionedCall/Skinny/conv2d_41/BiasAdd/ReadVariableOp", "op": "Const", "attr": {"dtype": {"type": "DT_FLOAT"}, "value": {"tensor": {"dtype": "DT_FLOAT", "tensorShape": {"dim": [{"size": "152"}]}}}}}, {"name": "StatefulPartitionedCall/Skinny/tf.concat_5/concat/axis", "op": "Const", "attr": {"dtype": {"type": "DT_INT32"}, "value": {"tensor": {"dtype": "DT_INT32", "tensorShape": {}}}}}, {"name": "StatefulPartitionedCall/Skinny/up_sampling2d/strided_slice/stack", "op": "Const", "attr": {"value": {"tensor": {"dtype": "DT_INT32", "tensorShape": {"dim": [{"size": "1"}]}}}, "dtype": {"type": "DT_INT32"}}}, {"name": "StatefulPartitionedCall/Skinny/up_sampling2d/strided_slice/stack_1", "op": "Const", "attr": {"value": {"tensor": {"dtype": "DT_INT32", "tensorShape": {"dim": [{"size": "1"}]}}}, "dtype": {"type": "DT_INT32"}}}, {"name": "StatefulPartitionedCall/Skinny/up_sampling2d/strided_slice/stack_2", "op": "Const", "attr": {"value": {"tensor": {"dtype": "DT_INT32", "tensorShape": {"dim": [{"size": "1"}]}}}, "dtype": {"type": "DT_INT32"}}}, {"name": "StatefulPartitionedCall/Skinny/up_sampling2d/Const", "op": "Const", "attr": {"value": {"tensor": {"dtype": "DT_INT32", "tensorShape": {"dim": [{"size": "2"}]}}}, "dtype": {"type": "DT_INT32"}}}, {"name": "StatefulPartitionedCall/Skinny/conv2d_29/Conv2D/ReadVariableOp", "op": "Const", "attr": {"value": {"tensor": {"dtype": "DT_FLOAT", "tensorShape": {"dim": [{"size": "1"}, {"size": "1"}, {"size": "304"}, {"size": "76"}]}}}, "dtype": {"type": "DT_FLOAT"}}}, {"name": "StatefulPartitionedCall/Skinny/conv2d_29/BiasAdd/ReadVariableOp", "op": "Const", "attr": {"value": {"tensor": {"dtype": "DT_FLOAT", "tensorShape": {"dim": [{"size": "76"}]}}}, "dtype": {"type": "DT_FLOAT"}}}, {"name": "StatefulPartitionedCall/Skinny/conv2d_30/Conv2D/ReadVariableOp", "op": "Const", "attr": {"value": {"tensor": {"dtype": "DT_FLOAT", "tensorShape": {"dim": [{"size": "1"}, {"size": "1"}, {"size": "304"}, {"size": "76"}]}}}, "dtype": {"type": "DT_FLOAT"}}}, {"name": "StatefulPartitionedCall/Skinny/conv2d_30/BiasAdd/ReadVariableOp", "op": "Const", "attr": {"dtype": {"type": "DT_FLOAT"}, "value": {"tensor": {"dtype": "DT_FLOAT", "tensorShape": {"dim": [{"size": "76"}]}}}}}, {"name": "StatefulPartitionedCall/Skinny/conv2d_31/Conv2D/ReadVariableOp", "op": "Const", "attr": {"value": {"tensor": {"dtype": "DT_FLOAT", "tensorShape": {"dim": [{"size": "3"}, {"size": "3"}, {"size": "76"}, {"size": "76"}]}}}, "dtype": {"type": "DT_FLOAT"}}}, {"name": "StatefulPartitionedCall/Skinny/conv2d_31/BiasAdd/ReadVariableOp", "op": "Const", "attr": {"value": {"tensor": {"dtype": "DT_FLOAT", "tensorShape": {"dim": [{"size": "76"}]}}}, "dtype": {"type": "DT_FLOAT"}}}, {"name": "StatefulPartitionedCall/Skinny/conv2d_32/Conv2D/ReadVariableOp", "op": "Const", "attr": {"value": {"tensor": {"dtype": "DT_FLOAT", "tensorShape": {"dim": [{"size": "1"}, {"size": "1"}, {"size": "304"}, {"size": "76"}]}}}, "dtype": {"type": "DT_FLOAT"}}}, {"name": "StatefulPartitionedCall/Skinny/conv2d_32/BiasAdd/ReadVariableOp", "op": "Const", "attr": {"value": {"tensor": {"dtype": "DT_FLOAT", "tensorShape": {"dim": [{"size": "76"}]}}}, "dtype": {"type": "DT_FLOAT"}}}, {"name": "StatefulPartitionedCall/Skinny/conv2d_33/Conv2D/ReadVariableOp", "op": "Const", "attr": {"value": {"tensor": {"dtype": "DT_FLOAT", "tensorShape": {"dim": [{"size": "5"}, {"size": "5"}, {"size": "76"}, {"size": "76"}]}}}, "dtype": {"type": "DT_FLOAT"}}}, {"name": "StatefulPartitionedCall/Skinny/conv2d_33/BiasAdd/ReadVariableOp", "op": "Const", "attr": {"value": {"tensor": {"dtype": "DT_FLOAT", "tensorShape": {"dim": [{"size": "76"}]}}}, "dtype": {"type": "DT_FLOAT"}}}, {"name": "StatefulPartitionedCall/Skinny/conv2d_34/Conv2D/ReadVariableOp", "op": "Const", "attr": {"value": {"tensor": {"dtype": "DT_FLOAT", "tensorShape": {"dim": [{"size": "1"}, {"size": "1"}, {"size": "304"}, {"size": "76"}]}}}, "dtype": {"type": "DT_FLOAT"}}}, {"name": "StatefulPartitionedCall/Skinny/conv2d_34/BiasAdd/ReadVariableOp", "op": "Const", "attr": {"dtype": {"type": "DT_FLOAT"}, "value": {"tensor": {"dtype": "DT_FLOAT", "tensorShape": {"dim": [{"size": "76"}]}}}}}, {"name": "StatefulPartitionedCall/Skinny/tf.concat_4/concat/axis", "op": "Const", "attr": {"value": {"tensor": {"dtype": "DT_INT32", "tensorShape": {}}}, "dtype": {"type": "DT_INT32"}}}, {"name": "StatefulPartitionedCall/Skinny/tf.concat_7/concat/axis", "op": "Const", "attr": {"value": {"tensor": {"dtype": "DT_INT32", "tensorShape": {}}}, "dtype": {"type": "DT_INT32"}}}, {"name": "StatefulPartitionedCall/Skinny/conv2d_51/Conv2D/ReadVariableOp", "op": "Const", "attr": {"value": {"tensor": {"dtype": "DT_FLOAT", "tensorShape": {"dim": [{"size": "1"}, {"size": "1"}, {"size": "874"}, {"size": "76"}]}}}, "dtype": {"type": "DT_FLOAT"}}}, {"name": "StatefulPartitionedCall/Skinny/conv2d_51/BiasAdd/ReadVariableOp", "op": "Const", "attr": {"value": {"tensor": {"dtype": "DT_FLOAT", "tensorShape": {"dim": [{"size": "76"}]}}}, "dtype": {"type": "DT_FLOAT"}}}, {"name": "StatefulPartitionedCall/Skinny/tf.concat_8/concat/axis", "op": "Const", "attr": {"value": {"tensor": {"dtype": "DT_INT32", "tensorShape": {}}}, "dtype": {"type": "DT_INT32"}}}, {"name": "StatefulPartitionedCall/Skinny/up_sampling2d_1/strided_slice/stack", "op": "Const", "attr": {"value": {"tensor": {"dtype": "DT_INT32", "tensorShape": {"dim": [{"size": "1"}]}}}, "dtype": {"type": "DT_INT32"}}}, {"name": "StatefulPartitionedCall/Skinny/up_sampling2d_1/strided_slice/stack_1", "op": "Const", "attr": {"value": {"tensor": {"dtype": "DT_INT32", "tensorShape": {"dim": [{"size": "1"}]}}}, "dtype": {"type": "DT_INT32"}}}, {"name": "StatefulPartitionedCall/Skinny/up_sampling2d_1/strided_slice/stack_2", "op": "Const", "attr": {"value": {"tensor": {"dtype": "DT_INT32", "tensorShape": {"dim": [{"size": "1"}]}}}, "dtype": {"type": "DT_INT32"}}}, {"name": "StatefulPartitionedCall/Skinny/up_sampling2d_1/Const", "op": "Const", "attr": {"value": {"tensor": {"dtype": "DT_INT32", "tensorShape": {"dim": [{"size": "2"}]}}}, "dtype": {"type": "DT_INT32"}}}, {"name": "StatefulPartitionedCall/Skinny/conv2d_22/Conv2D/ReadVariableOp", "op": "Const", "attr": {"value": {"tensor": {"dtype": "DT_FLOAT", "tensorShape": {"dim": [{"size": "1"}, {"size": "1"}, {"size": "152"}, {"size": "38"}]}}}, "dtype": {"type": "DT_FLOAT"}}}, {"name": "StatefulPartitionedCall/Skinny/conv2d_22/BiasAdd/ReadVariableOp", "op": "Const", "attr": {"value": {"tensor": {"dtype": "DT_FLOAT", "tensorShape": {"dim": [{"size": "38"}]}}}, "dtype": {"type": "DT_FLOAT"}}}, {"name": "StatefulPartitionedCall/Skinny/conv2d_23/Conv2D/ReadVariableOp", "op": "Const", "attr": {"value": {"tensor": {"dtype": "DT_FLOAT", "tensorShape": {"dim": [{"size": "1"}, {"size": "1"}, {"size": "152"}, {"size": "38"}]}}}, "dtype": {"type": "DT_FLOAT"}}}, {"name": "StatefulPartitionedCall/Skinny/conv2d_23/BiasAdd/ReadVariableOp", "op": "Const", "attr": {"dtype": {"type": "DT_FLOAT"}, "value": {"tensor": {"dtype": "DT_FLOAT", "tensorShape": {"dim": [{"size": "38"}]}}}}}, {"name": "StatefulPartitionedCall/Skinny/conv2d_24/Conv2D/ReadVariableOp", "op": "Const", "attr": {"value": {"tensor": {"dtype": "DT_FLOAT", "tensorShape": {"dim": [{"size": "3"}, {"size": "3"}, {"size": "38"}, {"size": "38"}]}}}, "dtype": {"type": "DT_FLOAT"}}}, {"name": "StatefulPartitionedCall/Skinny/conv2d_24/BiasAdd/ReadVariableOp", "op": "Const", "attr": {"value": {"tensor": {"dtype": "DT_FLOAT", "tensorShape": {"dim": [{"size": "38"}]}}}, "dtype": {"type": "DT_FLOAT"}}}, {"name": "StatefulPartitionedCall/Skinny/conv2d_25/Conv2D/ReadVariableOp", "op": "Const", "attr": {"dtype": {"type": "DT_FLOAT"}, "value": {"tensor": {"dtype": "DT_FLOAT", "tensorShape": {"dim": [{"size": "1"}, {"size": "1"}, {"size": "152"}, {"size": "38"}]}}}}}, {"name": "StatefulPartitionedCall/Skinny/conv2d_25/BiasAdd/ReadVariableOp", "op": "Const", "attr": {"value": {"tensor": {"dtype": "DT_FLOAT", "tensorShape": {"dim": [{"size": "38"}]}}}, "dtype": {"type": "DT_FLOAT"}}}, {"name": "StatefulPartitionedCall/Skinny/conv2d_26/Conv2D/ReadVariableOp", "op": "Const", "attr": {"value": {"tensor": {"dtype": "DT_FLOAT", "tensorShape": {"dim": [{"size": "5"}, {"size": "5"}, {"size": "38"}, {"size": "38"}]}}}, "dtype": {"type": "DT_FLOAT"}}}, {"name": "StatefulPartitionedCall/Skinny/conv2d_26/BiasAdd/ReadVariableOp", "op": "Const", "attr": {"value": {"tensor": {"dtype": "DT_FLOAT", "tensorShape": {"dim": [{"size": "38"}]}}}, "dtype": {"type": "DT_FLOAT"}}}, {"name": "StatefulPartitionedCall/Skinny/conv2d_27/Conv2D/ReadVariableOp", "op": "Const", "attr": {"value": {"tensor": {"dtype": "DT_FLOAT", "tensorShape": {"dim": [{"size": "1"}, {"size": "1"}, {"size": "152"}, {"size": "38"}]}}}, "dtype": {"type": "DT_FLOAT"}}}, {"name": "StatefulPartitionedCall/Skinny/conv2d_27/BiasAdd/ReadVariableOp", "op": "Const", "attr": {"dtype": {"type": "DT_FLOAT"}, "value": {"tensor": {"dtype": "DT_FLOAT", "tensorShape": {"dim": [{"size": "38"}]}}}}}, {"name": "StatefulPartitionedCall/Skinny/tf.concat_3/concat/axis", "op": "Const", "attr": {"dtype": {"type": "DT_INT32"}, "value": {"tensor": {"dtype": "DT_INT32", "tensorShape": {}}}}}, {"name": "StatefulPartitionedCall/Skinny/tf.concat_10/concat/axis", "op": "Const", "attr": {"value": {"tensor": {"dtype": "DT_INT32", "tensorShape": {}}}, "dtype": {"type": "DT_INT32"}}}, {"name": "StatefulPartitionedCall/Skinny/conv2d_61/Conv2D/ReadVariableOp", "op": "Const", "attr": {"value": {"tensor": {"dtype": "DT_FLOAT", "tensorShape": {"dim": [{"size": "1"}, {"size": "1"}, {"size": "437"}, {"size": "38"}]}}}, "dtype": {"type": "DT_FLOAT"}}}, {"name": "StatefulPartitionedCall/Skinny/conv2d_61/BiasAdd/ReadVariableOp", "op": "Const", "attr": {"value": {"tensor": {"dtype": "DT_FLOAT", "tensorShape": {"dim": [{"size": "38"}]}}}, "dtype": {"type": "DT_FLOAT"}}}, {"name": "StatefulPartitionedCall/Skinny/tf.concat_11/concat/axis", "op": "Const", "attr": {"value": {"tensor": {"dtype": "DT_INT32", "tensorShape": {}}}, "dtype": {"type": "DT_INT32"}}}, {"name": "StatefulPartitionedCall/Skinny/up_sampling2d_2/strided_slice/stack", "op": "Const", "attr": {"value": {"tensor": {"dtype": "DT_INT32", "tensorShape": {"dim": [{"size": "1"}]}}}, "dtype": {"type": "DT_INT32"}}}, {"name": "StatefulPartitionedCall/Skinny/up_sampling2d_2/strided_slice/stack_1", "op": "Const", "attr": {"value": {"tensor": {"dtype": "DT_INT32", "tensorShape": {"dim": [{"size": "1"}]}}}, "dtype": {"type": "DT_INT32"}}}, {"name": "StatefulPartitionedCall/Skinny/up_sampling2d_2/strided_slice/stack_2", "op": "Const", "attr": {"dtype": {"type": "DT_INT32"}, "value": {"tensor": {"dtype": "DT_INT32", "tensorShape": {"dim": [{"size": "1"}]}}}}}, {"name": "StatefulPartitionedCall/Skinny/up_sampling2d_2/Const", "op": "Const", "attr": {"dtype": {"type": "DT_INT32"}, "value": {"tensor": {"dtype": "DT_INT32", "tensorShape": {"dim": [{"size": "2"}]}}}}}, {"name": "StatefulPartitionedCall/Skinny/conv2d_15/Conv2D/ReadVariableOp", "op": "Const", "attr": {"value": {"tensor": {"dtype": "DT_FLOAT", "tensorShape": {"dim": [{"size": "1"}, {"size": "1"}, {"size": "76"}, {"size": "19"}]}}}, "dtype": {"type": "DT_FLOAT"}}}, {"name": "StatefulPartitionedCall/Skinny/conv2d_15/BiasAdd/ReadVariableOp", "op": "Const", "attr": {"value": {"tensor": {"dtype": "DT_FLOAT", "tensorShape": {"dim": [{"size": "19"}]}}}, "dtype": {"type": "DT_FLOAT"}}}, {"name": "StatefulPartitionedCall/Skinny/conv2d_16/Conv2D/ReadVariableOp", "op": "Const", "attr": {"value": {"tensor": {"dtype": "DT_FLOAT", "tensorShape": {"dim": [{"size": "1"}, {"size": "1"}, {"size": "76"}, {"size": "19"}]}}}, "dtype": {"type": "DT_FLOAT"}}}, {"name": "StatefulPartitionedCall/Skinny/conv2d_16/BiasAdd/ReadVariableOp", "op": "Const", "attr": {"value": {"tensor": {"dtype": "DT_FLOAT", "tensorShape": {"dim": [{"size": "19"}]}}}, "dtype": {"type": "DT_FLOAT"}}}, {"name": "StatefulPartitionedCall/Skinny/conv2d_17/Conv2D/ReadVariableOp", "op": "Const", "attr": {"dtype": {"type": "DT_FLOAT"}, "value": {"tensor": {"dtype": "DT_FLOAT", "tensorShape": {"dim": [{"size": "3"}, {"size": "3"}, {"size": "19"}, {"size": "19"}]}}}}}, {"name": "StatefulPartitionedCall/Skinny/conv2d_17/BiasAdd/ReadVariableOp", "op": "Const", "attr": {"dtype": {"type": "DT_FLOAT"}, "value": {"tensor": {"dtype": "DT_FLOAT", "tensorShape": {"dim": [{"size": "19"}]}}}}}, {"name": "StatefulPartitionedCall/Skinny/conv2d_18/Conv2D/ReadVariableOp", "op": "Const", "attr": {"value": {"tensor": {"dtype": "DT_FLOAT", "tensorShape": {"dim": [{"size": "1"}, {"size": "1"}, {"size": "76"}, {"size": "19"}]}}}, "dtype": {"type": "DT_FLOAT"}}}, {"name": "StatefulPartitionedCall/Skinny/conv2d_18/BiasAdd/ReadVariableOp", "op": "Const", "attr": {"value": {"tensor": {"dtype": "DT_FLOAT", "tensorShape": {"dim": [{"size": "19"}]}}}, "dtype": {"type": "DT_FLOAT"}}}, {"name": "StatefulPartitionedCall/Skinny/conv2d_19/Conv2D/ReadVariableOp", "op": "Const", "attr": {"value": {"tensor": {"dtype": "DT_FLOAT", "tensorShape": {"dim": [{"size": "5"}, {"size": "5"}, {"size": "19"}, {"size": "19"}]}}}, "dtype": {"type": "DT_FLOAT"}}}, {"name": "StatefulPartitionedCall/Skinny/conv2d_19/BiasAdd/ReadVariableOp", "op": "Const", "attr": {"value": {"tensor": {"dtype": "DT_FLOAT", "tensorShape": {"dim": [{"size": "19"}]}}}, "dtype": {"type": "DT_FLOAT"}}}, {"name": "StatefulPartitionedCall/Skinny/conv2d_20/Conv2D/ReadVariableOp", "op": "Const", "attr": {"value": {"tensor": {"dtype": "DT_FLOAT", "tensorShape": {"dim": [{"size": "1"}, {"size": "1"}, {"size": "76"}, {"size": "19"}]}}}, "dtype": {"type": "DT_FLOAT"}}}, {"name": "StatefulPartitionedCall/Skinny/conv2d_20/BiasAdd/ReadVariableOp", "op": "Const", "attr": {"value": {"tensor": {"dtype": "DT_FLOAT", "tensorShape": {"dim": [{"size": "19"}]}}}, "dtype": {"type": "DT_FLOAT"}}}, {"name": "StatefulPartitionedCall/Skinny/tf.concat_2/concat/axis", "op": "Const", "attr": {"dtype": {"type": "DT_INT32"}, "value": {"tensor": {"dtype": "DT_INT32", "tensorShape": {}}}}}, {"name": "StatefulPartitionedCall/Skinny/tf.concat_13/concat/axis", "op": "Const", "attr": {"value": {"tensor": {"dtype": "DT_INT32", "tensorShape": {}}}, "dtype": {"type": "DT_INT32"}}}, {"name": "StatefulPartitionedCall/Skinny/conv2d_71/Conv2D/ReadVariableOp", "op": "Const", "attr": {"value": {"tensor": {"dtype": "DT_FLOAT", "tensorShape": {"dim": [{"size": "1"}, {"size": "1"}, {"size": "218"}, {"size": "19"}]}}}, "dtype": {"type": "DT_FLOAT"}}}, {"name": "StatefulPartitionedCall/Skinny/conv2d_71/BiasAdd/ReadVariableOp", "op": "Const", "attr": {"value": {"tensor": {"dtype": "DT_FLOAT", "tensorShape": {"dim": [{"size": "19"}]}}}, "dtype": {"type": "DT_FLOAT"}}}, {"name": "StatefulPartitionedCall/Skinny/tf.concat_14/concat/axis", "op": "Const", "attr": {"value": {"tensor": {"dtype": "DT_INT32", "tensorShape": {}}}, "dtype": {"type": "DT_INT32"}}}, {"name": "StatefulPartitionedCall/Skinny/up_sampling2d_3/strided_slice/stack", "op": "Const", "attr": {"value": {"tensor": {"dtype": "DT_INT32", "tensorShape": {"dim": [{"size": "1"}]}}}, "dtype": {"type": "DT_INT32"}}}, {"name": "StatefulPartitionedCall/Skinny/up_sampling2d_3/strided_slice/stack_1", "op": "Const", "attr": {"dtype": {"type": "DT_INT32"}, "value": {"tensor": {"dtype": "DT_INT32", "tensorShape": {"dim": [{"size": "1"}]}}}}}, {"name": "StatefulPartitionedCall/Skinny/up_sampling2d_3/strided_slice/stack_2", "op": "Const", "attr": {"value": {"tensor": {"dtype": "DT_INT32", "tensorShape": {"dim": [{"size": "1"}]}}}, "dtype": {"type": "DT_INT32"}}}, {"name": "StatefulPartitionedCall/Skinny/up_sampling2d_3/Const", "op": "Const", "attr": {"value": {"tensor": {"dtype": "DT_INT32", "tensorShape": {"dim": [{"size": "2"}]}}}, "dtype": {"type": "DT_INT32"}}}, {"name": "StatefulPartitionedCall/Skinny/conv2d_8/Conv2D/ReadVariableOp", "op": "Const", "attr": {"dtype": {"type": "DT_FLOAT"}, "value": {"tensor": {"dtype": "DT_FLOAT", "tensorShape": {"dim": [{"size": "1"}, {"size": "1"}, {"size": "38"}, {"size": "9"}]}}}}}, {"name": "StatefulPartitionedCall/Skinny/conv2d_8/BiasAdd/ReadVariableOp", "op": "Const", "attr": {"value": {"tensor": {"dtype": "DT_FLOAT", "tensorShape": {"dim": [{"size": "9"}]}}}, "dtype": {"type": "DT_FLOAT"}}}, {"name": "StatefulPartitionedCall/Skinny/conv2d_9/Conv2D/ReadVariableOp", "op": "Const", "attr": {"value": {"tensor": {"dtype": "DT_FLOAT", "tensorShape": {"dim": [{"size": "1"}, {"size": "1"}, {"size": "38"}, {"size": "9"}]}}}, "dtype": {"type": "DT_FLOAT"}}}, {"name": "StatefulPartitionedCall/Skinny/conv2d_9/BiasAdd/ReadVariableOp", "op": "Const", "attr": {"value": {"tensor": {"dtype": "DT_FLOAT", "tensorShape": {"dim": [{"size": "9"}]}}}, "dtype": {"type": "DT_FLOAT"}}}, {"name": "StatefulPartitionedCall/Skinny/conv2d_10/Conv2D/ReadVariableOp", "op": "Const", "attr": {"value": {"tensor": {"dtype": "DT_FLOAT", "tensorShape": {"dim": [{"size": "3"}, {"size": "3"}, {"size": "9"}, {"size": "9"}]}}}, "dtype": {"type": "DT_FLOAT"}}}, {"name": "StatefulPartitionedCall/Skinny/conv2d_10/BiasAdd/ReadVariableOp", "op": "Const", "attr": {"value": {"tensor": {"dtype": "DT_FLOAT", "tensorShape": {"dim": [{"size": "9"}]}}}, "dtype": {"type": "DT_FLOAT"}}}, {"name": "StatefulPartitionedCall/Skinny/conv2d_11/Conv2D/ReadVariableOp", "op": "Const", "attr": {"value": {"tensor": {"dtype": "DT_FLOAT", "tensorShape": {"dim": [{"size": "1"}, {"size": "1"}, {"size": "38"}, {"size": "9"}]}}}, "dtype": {"type": "DT_FLOAT"}}}, {"name": "StatefulPartitionedCall/Skinny/conv2d_11/BiasAdd/ReadVariableOp", "op": "Const", "attr": {"dtype": {"type": "DT_FLOAT"}, "value": {"tensor": {"dtype": "DT_FLOAT", "tensorShape": {"dim": [{"size": "9"}]}}}}}, {"name": "StatefulPartitionedCall/Skinny/conv2d_12/Conv2D/ReadVariableOp", "op": "Const", "attr": {"dtype": {"type": "DT_FLOAT"}, "value": {"tensor": {"dtype": "DT_FLOAT", "tensorShape": {"dim": [{"size": "5"}, {"size": "5"}, {"size": "9"}, {"size": "9"}]}}}}}, {"name": "StatefulPartitionedCall/Skinny/conv2d_12/BiasAdd/ReadVariableOp", "op": "Const", "attr": {"value": {"tensor": {"dtype": "DT_FLOAT", "tensorShape": {"dim": [{"size": "9"}]}}}, "dtype": {"type": "DT_FLOAT"}}}, {"name": "StatefulPartitionedCall/Skinny/conv2d_13/Conv2D/ReadVariableOp", "op": "Const", "attr": {"value": {"tensor": {"dtype": "DT_FLOAT", "tensorShape": {"dim": [{"size": "1"}, {"size": "1"}, {"size": "38"}, {"size": "9"}]}}}, "dtype": {"type": "DT_FLOAT"}}}, {"name": "StatefulPartitionedCall/Skinny/conv2d_13/BiasAdd/ReadVariableOp", "op": "Const", "attr": {"value": {"tensor": {"dtype": "DT_FLOAT", "tensorShape": {"dim": [{"size": "9"}]}}}, "dtype": {"type": "DT_FLOAT"}}}, {"name": "StatefulPartitionedCall/Skinny/tf.concat_1/concat/axis", "op": "Const", "attr": {"value": {"tensor": {"dtype": "DT_INT32", "tensorShape": {}}}, "dtype": {"type": "DT_INT32"}}}, {"name": "StatefulPartitionedCall/Skinny/tf.concat_16/concat/axis", "op": "Const", "attr": {"dtype": {"type": "DT_INT32"}, "value": {"tensor": {"dtype": "DT_INT32", "tensorShape": {}}}}}, {"name": "StatefulPartitionedCall/Skinny/conv2d_81/Conv2D/ReadVariableOp", "op": "Const", "attr": {"value": {"tensor": {"dtype": "DT_FLOAT", "tensorShape": {"dim": [{"size": "1"}, {"size": "1"}, {"size": "106"}, {"size": "9"}]}}}, "dtype": {"type": "DT_FLOAT"}}}, {"name": "StatefulPartitionedCall/Skinny/conv2d_81/BiasAdd/ReadVariableOp", "op": "Const", "attr": {"value": {"tensor": {"dtype": "DT_FLOAT", "tensorShape": {"dim": [{"size": "9"}]}}}, "dtype": {"type": "DT_FLOAT"}}}, {"name": "StatefulPartitionedCall/Skinny/tf.concat_17/concat/axis", "op": "Const", "attr": {"value": {"tensor": {"dtype": "DT_INT32", "tensorShape": {}}}, "dtype": {"type": "DT_INT32"}}}, {"name": "StatefulPartitionedCall/Skinny/up_sampling2d_4/strided_slice/stack", "op": "Const", "attr": {"value": {"tensor": {"dtype": "DT_INT32", "tensorShape": {"dim": [{"size": "1"}]}}}, "dtype": {"type": "DT_INT32"}}}, {"name": "StatefulPartitionedCall/Skinny/up_sampling2d_4/strided_slice/stack_1", "op": "Const", "attr": {"value": {"tensor": {"dtype": "DT_INT32", "tensorShape": {"dim": [{"size": "1"}]}}}, "dtype": {"type": "DT_INT32"}}}, {"name": "StatefulPartitionedCall/Skinny/up_sampling2d_4/strided_slice/stack_2", "op": "Const", "attr": {"value": {"tensor": {"dtype": "DT_INT32", "tensorShape": {"dim": [{"size": "1"}]}}}, "dtype": {"type": "DT_INT32"}}}, {"name": "StatefulPartitionedCall/Skinny/up_sampling2d_4/Const", "op": "Const", "attr": {"value": {"tensor": {"dtype": "DT_INT32", "tensorShape": {"dim": [{"size": "2"}]}}}, "dtype": {"type": "DT_INT32"}}}, {"name": "StatefulPartitionedCall/Skinny/conv2d_1/Conv2D/ReadVariableOp", "op": "Const", "attr": {"dtype": {"type": "DT_FLOAT"}, "value": {"tensor": {"dtype": "DT_FLOAT", "tensorShape": {"dim": [{"size": "1"}, {"size": "1"}, {"size": "19"}, {"size": "4"}]}}}}}, {"name": "StatefulPartitionedCall/Skinny/conv2d_1/BiasAdd/ReadVariableOp", "op": "Const", "attr": {"value": {"tensor": {"dtype": "DT_FLOAT", "tensorShape": {"dim": [{"size": "4"}]}}}, "dtype": {"type": "DT_FLOAT"}}}, {"name": "StatefulPartitionedCall/Skinny/conv2d_2/Conv2D/ReadVariableOp", "op": "Const", "attr": {"value": {"tensor": {"dtype": "DT_FLOAT", "tensorShape": {"dim": [{"size": "1"}, {"size": "1"}, {"size": "19"}, {"size": "4"}]}}}, "dtype": {"type": "DT_FLOAT"}}}, {"name": "StatefulPartitionedCall/Skinny/conv2d_2/BiasAdd/ReadVariableOp", "op": "Const", "attr": {"dtype": {"type": "DT_FLOAT"}, "value": {"tensor": {"dtype": "DT_FLOAT", "tensorShape": {"dim": [{"size": "4"}]}}}}}, {"name": "StatefulPartitionedCall/Skinny/conv2d_3/Conv2D/ReadVariableOp", "op": "Const", "attr": {"value": {"tensor": {"dtype": "DT_FLOAT", "tensorShape": {"dim": [{"size": "3"}, {"size": "3"}, {"size": "4"}, {"size": "4"}]}}}, "dtype": {"type": "DT_FLOAT"}}}, {"name": "StatefulPartitionedCall/Skinny/conv2d_3/BiasAdd/ReadVariableOp", "op": "Const", "attr": {"value": {"tensor": {"dtype": "DT_FLOAT", "tensorShape": {"dim": [{"size": "4"}]}}}, "dtype": {"type": "DT_FLOAT"}}}, {"name": "StatefulPartitionedCall/Skinny/conv2d_4/Conv2D/ReadVariableOp", "op": "Const", "attr": {"value": {"tensor": {"dtype": "DT_FLOAT", "tensorShape": {"dim": [{"size": "1"}, {"size": "1"}, {"size": "19"}, {"size": "4"}]}}}, "dtype": {"type": "DT_FLOAT"}}}, {"name": "StatefulPartitionedCall/Skinny/conv2d_4/BiasAdd/ReadVariableOp", "op": "Const", "attr": {"value": {"tensor": {"dtype": "DT_FLOAT", "tensorShape": {"dim": [{"size": "4"}]}}}, "dtype": {"type": "DT_FLOAT"}}}, {"name": "StatefulPartitionedCall/Skinny/conv2d_5/Conv2D/ReadVariableOp", "op": "Const", "attr": {"dtype": {"type": "DT_FLOAT"}, "value": {"tensor": {"dtype": "DT_FLOAT", "tensorShape": {"dim": [{"size": "5"}, {"size": "5"}, {"size": "4"}, {"size": "4"}]}}}}}, {"name": "StatefulPartitionedCall/Skinny/conv2d_5/BiasAdd/ReadVariableOp", "op": "Const", "attr": {"dtype": {"type": "DT_FLOAT"}, "value": {"tensor": {"dtype": "DT_FLOAT", "tensorShape": {"dim": [{"size": "4"}]}}}}}, {"name": "StatefulPartitionedCall/Skinny/conv2d_6/Conv2D/ReadVariableOp", "op": "Const", "attr": {"value": {"tensor": {"dtype": "DT_FLOAT", "tensorShape": {"dim": [{"size": "1"}, {"size": "1"}, {"size": "19"}, {"size": "4"}]}}}, "dtype": {"type": "DT_FLOAT"}}}, {"name": "StatefulPartitionedCall/Skinny/conv2d_6/BiasAdd/ReadVariableOp", "op": "Const", "attr": {"value": {"tensor": {"dtype": "DT_FLOAT", "tensorShape": {"dim": [{"size": "4"}]}}}, "dtype": {"type": "DT_FLOAT"}}}, {"name": "StatefulPartitionedCall/Skinny/tf.concat/concat/axis", "op": "Const", "attr": {"value": {"tensor": {"dtype": "DT_INT32", "tensorShape": {}}}, "dtype": {"type": "DT_INT32"}}}, {"name": "StatefulPartitionedCall/Skinny/tf.concat_19/concat/axis", "op": "Const", "attr": {"value": {"tensor": {"dtype": "DT_INT32", "tensorShape": {}}}, "dtype": {"type": "DT_INT32"}}}, {"name": "StatefulPartitionedCall/Skinny/conv2d_91/Conv2D/ReadVariableOp", "op": "Const", "attr": {"value": {"tensor": {"dtype": "DT_FLOAT", "tensorShape": {"dim": [{"size": "1"}, {"size": "1"}, {"size": "50"}, {"size": "4"}]}}}, "dtype": {"type": "DT_FLOAT"}}}, {"name": "StatefulPartitionedCall/Skinny/conv2d_91/BiasAdd/ReadVariableOp", "op": "Const", "attr": {"value": {"tensor": {"dtype": "DT_FLOAT", "tensorShape": {"dim": [{"size": "4"}]}}}, "dtype": {"type": "DT_FLOAT"}}}, {"name": "StatefulPartitionedCall/Skinny/tf.concat_20/concat/axis", "op": "Const", "attr": {"dtype": {"type": "DT_INT32"}, "value": {"tensor": {"dtype": "DT_INT32", "tensorShape": {}}}}}, {"name": "StatefulPartitionedCall/Skinny/conv2d_92/Conv2D/ReadVariableOp", "op": "Const", "attr": {"value": {"tensor": {"dtype": "DT_FLOAT", "tensorShape": {"dim": [{"size": "3"}, {"size": "3"}, {"size": "16"}, {"size": "19"}]}}}, "dtype": {"type": "DT_FLOAT"}}}, {"name": "StatefulPartitionedCall/Skinny/conv2d_92/BiasAdd/ReadVariableOp", "op": "Const", "attr": {"value": {"tensor": {"dtype": "DT_FLOAT", "tensorShape": {"dim": [{"size": "19"}]}}}, "dtype": {"type": "DT_FLOAT"}}}, {"name": "StatefulPartitionedCall/Skinny/conv2d_93/Conv2D/ReadVariableOp", "op": "Const", "attr": {"value": {"tensor": {"dtype": "DT_FLOAT", "tensorShape": {"dim": [{"size": "3"}, {"size": "3"}, {"size": "19"}, {"size": "9"}]}}}, "dtype": {"type": "DT_FLOAT"}}}, {"name": "StatefulPartitionedCall/Skinny/conv2d_93/BiasAdd/ReadVariableOp", "op": "Const", "attr": {"dtype": {"type": "DT_FLOAT"}, "value": {"tensor": {"dtype": "DT_FLOAT", "tensorShape": {"dim": [{"size": "9"}]}}}}}, {"name": "StatefulPartitionedCall/Skinny/label/Conv2D/ReadVariableOp", "op": "Const", "attr": {"value": {"tensor": {"dtype": "DT_FLOAT", "tensorShape": {"dim": [{"size": "3"}, {"size": "3"}, {"size": "9"}, {"size": "1"}]}}}, "dtype": {"type": "DT_FLOAT"}}}, {"name": "StatefulPartitionedCall/Skinny/label/BiasAdd/ReadVariableOp", "op": "Const", "attr": {"value": {"tensor": {"dtype": "DT_FLOAT", "tensorShape": {"dim": [{"size": "1"}]}}}, "dtype": {"type": "DT_FLOAT"}}}, {"name": "feature", "op": "Placeholder", "attr": {"dtype": {"type": "DT_FLOAT"}, "shape": {"shape": {"dim": [{"size": "-1"}, {"size": "-1"}, {"size": "-1"}, {"size": "3"}]}}}}, {"name": "StatefulPartitionedCall/Skinny/conv2d/Conv2D_weights", "op": "Const", "attr": {"value": {"tensor": {"dtype": "DT_FLOAT", "tensorShape": {"dim": [{"size": "3"}, {"size": "3"}, {"size": "3"}, {"size": "19"}]}}}, "dtype": {"type": "DT_FLOAT"}}}, {"name": "StatefulPartitionedCall/Skinny/conv2d/Conv2D_bn_offset", "op": "Const", "attr": {"value": {"tensor": {"dtype": "DT_FLOAT", "tensorShape": {"dim": [{"size": "19"}]}}}, "dtype": {"type": "DT_FLOAT"}}}, {"name": "StatefulPartitionedCall/Skinny/conv2d_44/Conv2D_weights", "op": "Const", "attr": {"value": {"tensor": {"dtype": "DT_FLOAT", "tensorShape": {"dim": [{"size": "3"}, {"size": "3"}, {"size": "152"}, {"size": "76"}]}}}, "dtype": {"type": "DT_FLOAT"}}}, {"name": "StatefulPartitionedCall/Skinny/conv2d_83/Conv2D_weights", "op": "Const", "attr": {"value": {"tensor": {"dtype": "DT_FLOAT", "tensorShape": {"dim": [{"size": "3"}, {"size": "3"}, {"size": "16"}, {"size": "9"}]}}}, "dtype": {"type": "DT_FLOAT"}}}, {"name": "StatefulPartitionedCall/Skinny/conv2d_83/Conv2D_bn_offset", "op": "Const", "attr": {"dtype": {"type": "DT_FLOAT"}, "value": {"tensor": {"dtype": "DT_FLOAT", "tensorShape": {"dim": [{"size": "9"}]}}}}}, {"name": "StatefulPartitionedCall/Skinny/conv2d_44/Conv2D_bn_offset", "op": "Const", "attr": {"value": {"tensor": {"dtype": "DT_FLOAT", "tensorShape": {"dim": [{"size": "76"}]}}}, "dtype": {"type": "DT_FLOAT"}}}, {"name": "StatefulPartitionedCall/Skinny/conv2d_7/Conv2D_weights", "op": "Const", "attr": {"value": {"tensor": {"dtype": "DT_FLOAT", "tensorShape": {"dim": [{"size": "3"}, {"size": "3"}, {"size": "16"}, {"size": "38"}]}}}, "dtype": {"type": "DT_FLOAT"}}}, {"name": "StatefulPartitionedCall/Skinny/conv2d_7/Conv2D_bn_offset", "op": "Const", "attr": {"dtype": {"type": "DT_FLOAT"}, "value": {"tensor": {"dtype": "DT_FLOAT", "tensorShape": {"dim": [{"size": "38"}]}}}}}, {"name": "StatefulPartitionedCall/Skinny/conv2d_45/Conv2D_weights", "op": "Const", "attr": {"value": {"tensor": {"dtype": "DT_FLOAT", "tensorShape": {"dim": [{"size": "3"}, {"size": "3"}, {"size": "76"}, {"size": "38"}]}}}, "dtype": {"type": "DT_FLOAT"}}}, {"name": "StatefulPartitionedCall/Skinny/conv2d_45/Conv2D_bn_offset", "op": "Const", "attr": {"value": {"tensor": {"dtype": "DT_FLOAT", "tensorShape": {"dim": [{"size": "38"}]}}}, "dtype": {"type": "DT_FLOAT"}}}, {"name": "StatefulPartitionedCall/Skinny/conv2d_42/Conv2D_weights", "op": "Const", "attr": {"value": {"tensor": {"dtype": "DT_FLOAT", "tensorShape": {"dim": [{"size": "3"}, {"size": "3"}, {"size": "608"}, {"size": "304"}]}}}, "dtype": {"type": "DT_FLOAT"}}}, {"name": "StatefulPartitionedCall/Skinny/conv2d_42/Conv2D_bn_offset", "op": "Const", "attr": {"value": {"tensor": {"dtype": "DT_FLOAT", "tensorShape": {"dim": [{"size": "304"}]}}}, "dtype": {"type": "DT_FLOAT"}}}, {"name": "StatefulPartitionedCall/Skinny/conv2d_84/Conv2D_weights", "op": "Const", "attr": {"dtype": {"type": "DT_FLOAT"}, "value": {"tensor": {"dtype": "DT_FLOAT", "tensorShape": {"dim": [{"size": "3"}, {"size": "3"}, {"size": "9"}, {"size": "4"}]}}}}}, {"name": "StatefulPartitionedCall/Skinny/conv2d_84/Conv2D_bn_offset", "op": "Const", "attr": {"value": {"tensor": {"dtype": "DT_FLOAT", "tensorShape": {"dim": [{"size": "4"}]}}}, "dtype": {"type": "DT_FLOAT"}}}, {"name": "StatefulPartitionedCall/Skinny/conv2d_85/Conv2D_weights", "op": "Const", "attr": {"value": {"tensor": {"dtype": "DT_FLOAT", "tensorShape": {"dim": [{"size": "3"}, {"size": "3"}, {"size": "4"}, {"size": "2"}]}}}, "dtype": {"type": "DT_FLOAT"}}}, {"name": "StatefulPartitionedCall/Skinny/conv2d_72/Conv2D_weights", "op": "Const", "attr": {"value": {"tensor": {"dtype": "DT_FLOAT", "tensorShape": {"dim": [{"size": "3"}, {"size": "3"}, {"size": "76"}, {"size": "38"}]}}}, "dtype": {"type": "DT_FLOAT"}}}, {"name": "StatefulPartitionedCall/Skinny/conv2d_85/Conv2D_bn_offset", "op": "Const", "attr": {"value": {"tensor": {"dtype": "DT_FLOAT", "tensorShape": {"dim": [{"size": "2"}]}}}, "dtype": {"type": "DT_FLOAT"}}}, {"name": "StatefulPartitionedCall/Skinny/conv2d_73/Conv2D_weights", "op": "Const", "attr": {"value": {"tensor": {"dtype": "DT_FLOAT", "tensorShape": {"dim": [{"size": "3"}, {"size": "3"}, {"size": "36"}, {"size": "19"}]}}}, "dtype": {"type": "DT_FLOAT"}}}, {"name": "StatefulPartitionedCall/Skinny/conv2d_73/Conv2D_bn_offset", "op": "Const", "attr": {"value": {"tensor": {"dtype": "DT_FLOAT", "tensorShape": {"dim": [{"size": "19"}]}}}, "dtype": {"type": "DT_FLOAT"}}}, {"name": "StatefulPartitionedCall/Skinny/conv2d_14/Conv2D_weights", "op": "Const", "attr": {"value": {"tensor": {"dtype": "DT_FLOAT", "tensorShape": {"dim": [{"size": "3"}, {"size": "3"}, {"size": "36"}, {"size": "76"}]}}}, "dtype": {"type": "DT_FLOAT"}}}, {"name": "StatefulPartitionedCall/Skinny/conv2d_72/Conv2D_bn_offset", "op": "Const", "attr": {"dtype": {"type": "DT_FLOAT"}, "value": {"tensor": {"dtype": "DT_FLOAT", "tensorShape": {"dim": [{"size": "38"}]}}}}}, {"name": "StatefulPartitionedCall/Skinny/conv2d_14/Conv2D_bn_offset", "op": "Const", "attr": {"value": {"tensor": {"dtype": "DT_FLOAT", "tensorShape": {"dim": [{"size": "76"}]}}}, "dtype": {"type": "DT_FLOAT"}}}, {"name": "StatefulPartitionedCall/Skinny/conv2d_74/Conv2D_weights", "op": "Const", "attr": {"value": {"tensor": {"dtype": "DT_FLOAT", "tensorShape": {"dim": [{"size": "3"}, {"size": "3"}, {"size": "19"}, {"size": "9"}]}}}, "dtype": {"type": "DT_FLOAT"}}}, {"name": "StatefulPartitionedCall/Skinny/conv2d_74/Conv2D_bn_offset", "op": "Const", "attr": {"value": {"tensor": {"dtype": "DT_FLOAT", "tensorShape": {"dim": [{"size": "9"}]}}}, "dtype": {"type": "DT_FLOAT"}}}, {"name": "StatefulPartitionedCall/Skinny/conv2d_75/Conv2D_weights", "op": "Const", "attr": {"value": {"tensor": {"dtype": "DT_FLOAT", "tensorShape": {"dim": [{"size": "3"}, {"size": "3"}, {"size": "9"}, {"size": "4"}]}}}, "dtype": {"type": "DT_FLOAT"}}}, {"name": "StatefulPartitionedCall/Skinny/conv2d_75/Conv2D_bn_offset", "op": "Const", "attr": {"value": {"tensor": {"dtype": "DT_FLOAT", "tensorShape": {"dim": [{"size": "4"}]}}}, "dtype": {"type": "DT_FLOAT"}}}, {"name": "StatefulPartitionedCall/Skinny/conv2d_63/Conv2D_weights", "op": "Const", "attr": {"value": {"tensor": {"dtype": "DT_FLOAT", "tensorShape": {"dim": [{"size": "3"}, {"size": "3"}, {"size": "76"}, {"size": "38"}]}}}, "dtype": {"type": "DT_FLOAT"}}}, {"name": "StatefulPartitionedCall/Skinny/conv2d_63/Conv2D_bn_offset", "op": "Const", "attr": {"value": {"tensor": {"dtype": "DT_FLOAT", "tensorShape": {"dim": [{"size": "38"}]}}}, "dtype": {"type": "DT_FLOAT"}}}, {"name": "StatefulPartitionedCall/Skinny/conv2d_52/Conv2D_weights", "op": "Const", "attr": {"value": {"tensor": {"dtype": "DT_FLOAT", "tensorShape": {"dim": [{"size": "3"}, {"size": "3"}, {"size": "304"}, {"size": "152"}]}}}, "dtype": {"type": "DT_FLOAT"}}}, {"name": "StatefulPartitionedCall/Skinny/conv2d_21/Conv2D_weights", "op": "Const", "attr": {"dtype": {"type": "DT_FLOAT"}, "value": {"tensor": {"dtype": "DT_FLOAT", "tensorShape": {"dim": [{"size": "3"}, {"size": "3"}, {"size": "76"}, {"size": "152"}]}}}}}, {"name": "StatefulPartitionedCall/Skinny/conv2d_21/Conv2D_bn_offset", "op": "Const", "attr": {"value": {"tensor": {"dtype": "DT_FLOAT", "tensorShape": {"dim": [{"size": "152"}]}}}, "dtype": {"type": "DT_FLOAT"}}}, {"name": "StatefulPartitionedCall/Skinny/conv2d_52/Conv2D_bn_offset", "op": "Const", "attr": {"value": {"tensor": {"dtype": "DT_FLOAT", "tensorShape": {"dim": [{"size": "152"}]}}}, "dtype": {"type": "DT_FLOAT"}}}, {"name": "StatefulPartitionedCall/Skinny/conv2d_64/Conv2D_weights", "op": "Const", "attr": {"value": {"tensor": {"dtype": "DT_FLOAT", "tensorShape": {"dim": [{"size": "3"}, {"size": "3"}, {"size": "38"}, {"size": "19"}]}}}, "dtype": {"type": "DT_FLOAT"}}}, {"name": "StatefulPartitionedCall/Skinny/conv2d_64/Conv2D_bn_offset", "op": "Const", "attr": {"value": {"tensor": {"dtype": "DT_FLOAT", "tensorShape": {"dim": [{"size": "19"}]}}}, "dtype": {"type": "DT_FLOAT"}}}, {"name": "StatefulPartitionedCall/Skinny/conv2d_65/Conv2D_weights", "op": "Const", "attr": {"value": {"tensor": {"dtype": "DT_FLOAT", "tensorShape": {"dim": [{"size": "3"}, {"size": "3"}, {"size": "19"}, {"size": "9"}]}}}, "dtype": {"type": "DT_FLOAT"}}}, {"name": "StatefulPartitionedCall/Skinny/conv2d_65/Conv2D_bn_offset", "op": "Const", "attr": {"value": {"tensor": {"dtype": "DT_FLOAT", "tensorShape": {"dim": [{"size": "9"}]}}}, "dtype": {"type": "DT_FLOAT"}}}, {"name": "StatefulPartitionedCall/Skinny/conv2d_53/Conv2D_weights", "op": "Const", "attr": {"dtype": {"type": "DT_FLOAT"}, "value": {"tensor": {"dtype": "DT_FLOAT", "tensorShape": {"dim": [{"size": "3"}, {"size": "3"}, {"size": "152"}, {"size": "76"}]}}}}}, {"name": "StatefulPartitionedCall/Skinny/conv2d_53/Conv2D_bn_offset", "op": "Const", "attr": {"value": {"tensor": {"dtype": "DT_FLOAT", "tensorShape": {"dim": [{"size": "76"}]}}}, "dtype": {"type": "DT_FLOAT"}}}, {"name": "StatefulPartitionedCall/Skinny/conv2d_28/Conv2D_weights", "op": "Const", "attr": {"value": {"tensor": {"dtype": "DT_FLOAT", "tensorShape": {"dim": [{"size": "3"}, {"size": "3"}, {"size": "152"}, {"size": "304"}]}}}, "dtype": {"type": "DT_FLOAT"}}}, {"name": "StatefulPartitionedCall/Skinny/conv2d_28/Conv2D_bn_offset", "op": "Const", "attr": {"value": {"tensor": {"dtype": "DT_FLOAT", "tensorShape": {"dim": [{"size": "304"}]}}}, "dtype": {"type": "DT_FLOAT"}}}, {"name": "StatefulPartitionedCall/Skinny/conv2d_62/Conv2D_weights", "op": "Const", "attr": {"value": {"tensor": {"dtype": "DT_FLOAT", "tensorShape": {"dim": [{"size": "3"}, {"size": "3"}, {"size": "152"}, {"size": "76"}]}}}, "dtype": {"type": "DT_FLOAT"}}}, {"name": "StatefulPartitionedCall/Skinny/conv2d_62/Conv2D_bn_offset", "op": "Const", "attr": {"value": {"tensor": {"dtype": "DT_FLOAT", "tensorShape": {"dim": [{"size": "76"}]}}}, "dtype": {"type": "DT_FLOAT"}}}, {"name": "StatefulPartitionedCall/Skinny/conv2d_54/Conv2D_weights", "op": "Const", "attr": {"dtype": {"type": "DT_FLOAT"}, "value": {"tensor": {"dtype": "DT_FLOAT", "tensorShape": {"dim": [{"size": "3"}, {"size": "3"}, {"size": "76"}, {"size": "38"}]}}}}}, {"name": "StatefulPartitionedCall/Skinny/conv2d_54/Conv2D_bn_offset", "op": "Const", "attr": {"value": {"tensor": {"dtype": "DT_FLOAT", "tensorShape": {"dim": [{"size": "38"}]}}}, "dtype": {"type": "DT_FLOAT"}}}, {"name": "StatefulPartitionedCall/Skinny/conv2d_55/Conv2D_weights", "op": "Const", "attr": {"value": {"tensor": {"dtype": "DT_FLOAT", "tensorShape": {"dim": [{"size": "3"}, {"size": "3"}, {"size": "38"}, {"size": "19"}]}}}, "dtype": {"type": "DT_FLOAT"}}}, {"name": "StatefulPartitionedCall/Skinny/conv2d_55/Conv2D_bn_offset", "op": "Const", "attr": {"dtype": {"type": "DT_FLOAT"}, "value": {"tensor": {"dtype": "DT_FLOAT", "tensorShape": {"dim": [{"size": "19"}]}}}}}, {"name": "StatefulPartitionedCall/Skinny/conv2d_43/Conv2D_weights", "op": "Const", "attr": {"value": {"tensor": {"dtype": "DT_FLOAT", "tensorShape": {"dim": [{"size": "3"}, {"size": "3"}, {"size": "304"}, {"size": "152"}]}}}, "dtype": {"type": "DT_FLOAT"}}}, {"name": "StatefulPartitionedCall/Skinny/conv2d_43/Conv2D_bn_offset", "op": "Const", "attr": {"value": {"tensor": {"dtype": "DT_FLOAT", "tensorShape": {"dim": [{"size": "152"}]}}}, "dtype": {"type": "DT_FLOAT"}}}, {"name": "StatefulPartitionedCall/Skinny/conv2d_35/Conv2D_weights", "op": "Const", "attr": {"value": {"tensor": {"dtype": "DT_FLOAT", "tensorShape": {"dim": [{"size": "3"}, {"size": "3"}, {"size": "304"}, {"size": "608"}]}}}, "dtype": {"type": "DT_FLOAT"}}}, {"name": "StatefulPartitionedCall/Skinny/conv2d_35/Conv2D_bn_offset", "op": "Const", "attr": {"value": {"tensor": {"dtype": "DT_FLOAT", "tensorShape": {"dim": [{"size": "608"}]}}}, "dtype": {"type": "DT_FLOAT"}}}, {"name": "StatefulPartitionedCall/Skinny/conv2d_82/Conv2D_weights", "op": "Const", "attr": {"value": {"tensor": {"dtype": "DT_FLOAT", "tensorShape": {"dim": [{"size": "3"}, {"size": "3"}, {"size": "36"}, {"size": "19"}]}}}, "dtype": {"type": "DT_FLOAT"}}}, {"name": "StatefulPartitionedCall/Skinny/conv2d_82/Conv2D_bn_offset", "op": "Const", "attr": {"dtype": {"type": "DT_FLOAT"}, "value": {"tensor": {"dtype": "DT_FLOAT", "tensorShape": {"dim": [{"size": "19"}]}}}}}, {"name": "StatefulPartitionedCall/Skinny/leaky_re_lu/LeakyRelu", "op": "_FusedConv2D", "input": ["feature", "StatefulPartitionedCall/Skinny/conv2d/Conv2D_weights", "StatefulPartitionedCall/Skinny/conv2d/Conv2D_bn_offset"], "device": "/device:CPU:0", "attr": {"padding": {"s": "U0FNRQ=="}, "leakyrelu_alpha": {"f": 0.3}, "explicit_paddings": {"list": {}}, "num_args": {"i": "1"}, "T": {"type": "DT_FLOAT"}, "epsilon": {"f": 0.0}, "data_format": {"s": "TkhXQw=="}, "fused_ops": {"list": {"s": ["Qmlhc0FkZA==", "TGVha3lSZWx1"]}}, "dilations": {"list": {"i": ["1", "1", "1", "1"]}}, "use_cudnn_on_gpu": {"b": true}, "strides": {"list": {"i": ["1", "1", "1", "1"]}}}}, {"name": "StatefulPartitionedCall/Skinny/leaky_re_lu_1/LeakyRelu", "op": "_FusedConv2D", "input": ["StatefulPartitionedCall/Skinny/leaky_re_lu/LeakyRelu", "StatefulPartitionedCall/Skinny/conv2d_1/Conv2D/ReadVariableOp", "StatefulPartitionedCall/Skinny/conv2d_1/BiasAdd/ReadVariableOp"], "device": "/device:CPU:0", "attr": {"leakyrelu_alpha": {"f": 0.3}, "epsilon": {"f": 0.0}, "T": {"type": "DT_FLOAT"}, "explicit_paddings": {"list": {}}, "num_args": {"i": "1"}, "data_format": {"s": "TkhXQw=="}, "strides": {"list": {"i": ["1", "1", "1", "1"]}}, "dilations": {"list": {"i": ["1", "1", "1", "1"]}}, "padding": {"s": "U0FNRQ=="}, "fused_ops": {"list": {"s": ["Qmlhc0FkZA==", "TGVha3lSZWx1"]}}, "use_cudnn_on_gpu": {"b": true}}}, {"name": "StatefulPartitionedCall/Skinny/conv2d_2/BiasAdd", "op": "_FusedConv2D", "input": ["StatefulPartitionedCall/Skinny/leaky_re_lu/LeakyRelu", "StatefulPartitionedCall/Skinny/conv2d_2/Conv2D/ReadVariableOp", "StatefulPartitionedCall/Skinny/conv2d_2/BiasAdd/ReadVariableOp"], "device": "/device:CPU:0", "attr": {"epsilon": {"f": 0.0}, "explicit_paddings": {"list": {}}, "num_args": {"i": "1"}, "data_format": {"s": "TkhXQw=="}, "padding": {"s": "U0FNRQ=="}, "strides": {"list": {"i": ["1", "1", "1", "1"]}}, "fused_ops": {"list": {"s": ["Qmlhc0FkZA=="]}}, "dilations": {"list": {"i": ["1", "1", "1", "1"]}}, "use_cudnn_on_gpu": {"b": true}, "T": {"type": "DT_FLOAT"}}}, {"name": "StatefulPartitionedCall/Skinny/conv2d_4/BiasAdd", "op": "_FusedConv2D", "input": ["StatefulPartitionedCall/Skinny/leaky_re_lu/LeakyRelu", "StatefulPartitionedCall/Skinny/conv2d_4/Conv2D/ReadVariableOp", "StatefulPartitionedCall/Skinny/conv2d_4/BiasAdd/ReadVariableOp"], "device": "/device:CPU:0", "attr": {"data_format": {"s": "TkhXQw=="}, "dilations": {"list": {"i": ["1", "1", "1", "1"]}}, "use_cudnn_on_gpu": {"b": true}, "padding": {"s": "U0FNRQ=="}, "fused_ops": {"list": {"s": ["Qmlhc0FkZA=="]}}, "T": {"type": "DT_FLOAT"}, "explicit_paddings": {"list": {}}, "num_args": {"i": "1"}, "strides": {"list": {"i": ["1", "1", "1", "1"]}}, "epsilon": {"f": 0.0}}}, {"name": "StatefulPartitionedCall/Skinny/max_pooling2d/MaxPool", "op": "MaxPool", "input": ["StatefulPartitionedCall/Skinny/leaky_re_lu/LeakyRelu"], "attr": {"T": {"type": "DT_FLOAT"}, "explicit_paddings": {"list": {}}, "strides": {"list": {"i": ["1", "1", "1", "1"]}}, "data_format": {"s": "TkhXQw=="}, "ksize": {"list": {"i": ["1", "2", "2", "1"]}}, "padding": {"s": "U0FNRQ=="}}}, {"name": "StatefulPartitionedCall/Skinny/leaky_re_lu_2/LeakyRelu", "op": "_FusedConv2D", "input": ["StatefulPartitionedCall/Skinny/conv2d_2/BiasAdd", "StatefulPartitionedCall/Skinny/conv2d_3/Conv2D/ReadVariableOp", "StatefulPartitionedCall/Skinny/conv2d_3/BiasAdd/ReadVariableOp"], "device": "/device:CPU:0", "attr": {"T": {"type": "DT_FLOAT"}, "fused_ops": {"list": {"s": ["Qmlhc0FkZA==", "TGVha3lSZWx1"]}}, "use_cudnn_on_gpu": {"b": true}, "strides": {"list": {"i": ["1", "1", "1", "1"]}}, "leakyrelu_alpha": {"f": 0.3}, "epsilon": {"f": 0.0}, "explicit_paddings": {"list": {}}, "num_args": {"i": "1"}, "padding": {"s": "U0FNRQ=="}, "data_format": {"s": "TkhXQw=="}, "dilations": {"list": {"i": ["1", "1", "1", "1"]}}}}, {"name": "StatefulPartitionedCall/Skinny/leaky_re_lu_3/LeakyRelu", "op": "_FusedConv2D", "input": ["StatefulPartitionedCall/Skinny/conv2d_4/BiasAdd", "StatefulPartitionedCall/Skinny/conv2d_5/Conv2D/ReadVariableOp", "StatefulPartitionedCall/Skinny/conv2d_5/BiasAdd/ReadVariableOp"], "device": "/device:CPU:0", "attr": {"leakyrelu_alpha": {"f": 0.3}, "epsilon": {"f": 0.0}, "explicit_paddings": {"list": {}}, "num_args": {"i": "1"}, "T": {"type": "DT_FLOAT"}, "data_format": {"s": "TkhXQw=="}, "fused_ops": {"list": {"s": ["Qmlhc0FkZA==", "TGVha3lSZWx1"]}}, "dilations": {"list": {"i": ["1", "1", "1", "1"]}}, "use_cudnn_on_gpu": {"b": true}, "padding": {"s": "U0FNRQ=="}, "strides": {"list": {"i": ["1", "1", "1", "1"]}}}}, {"name": "StatefulPartitionedCall/Skinny/leaky_re_lu_4/LeakyRelu", "op": "_FusedConv2D", "input": ["StatefulPartitionedCall/Skinny/max_pooling2d/MaxPool", "StatefulPartitionedCall/Skinny/conv2d_6/Conv2D/ReadVariableOp", "StatefulPartitionedCall/Skinny/conv2d_6/BiasAdd/ReadVariableOp"], "device": "/device:CPU:0", "attr": {"num_args": {"i": "1"}, "epsilon": {"f": 0.0}, "padding": {"s": "U0FNRQ=="}, "data_format": {"s": "TkhXQw=="}, "T": {"type": "DT_FLOAT"}, "use_cudnn_on_gpu": {"b": true}, "dilations": {"list": {"i": ["1", "1", "1", "1"]}}, "strides": {"list": {"i": ["1", "1", "1", "1"]}}, "fused_ops": {"list": {"s": ["Qmlhc0FkZA==", "TGVha3lSZWx1"]}}, "leakyrelu_alpha": {"f": 0.3}, "explicit_paddings": {"list": {}}}}, {"name": "StatefulPartitionedCall/Skinny/tf.concat/concat", "op": "ConcatV2", "input": ["StatefulPartitionedCall/Skinny/leaky_re_lu_1/LeakyRelu", "StatefulPartitionedCall/Skinny/leaky_re_lu_2/LeakyRelu", "StatefulPartitionedCall/Skinny/leaky_re_lu_3/LeakyRelu", "StatefulPartitionedCall/Skinny/leaky_re_lu_4/LeakyRelu", "StatefulPartitionedCall/Skinny/tf.concat/concat/axis"], "attr": {"Tidx": {"type": "DT_INT32"}, "T": {"type": "DT_FLOAT"}, "N": {"i": "4"}}}, {"name": "StatefulPartitionedCall/Skinny/max_pooling2d_1/MaxPool", "op": "MaxPool", "input": ["StatefulPartitionedCall/Skinny/tf.concat/concat"], "attr": {"strides": {"list": {"i": ["1", "2", "2", "1"]}}, "padding": {"s": "VkFMSUQ="}, "ksize": {"list": {"i": ["1", "2", "2", "1"]}}, "T": {"type": "DT_FLOAT"}, "explicit_paddings": {"list": {}}, "data_format": {"s": "TkhXQw=="}}}, {"name": "StatefulPartitionedCall/Skinny/leaky_re_lu_63/LeakyRelu", "op": "_FusedConv2D", "input": ["StatefulPartitionedCall/Skinny/tf.concat/concat", "StatefulPartitionedCall/Skinny/conv2d_83/Conv2D_weights", "StatefulPartitionedCall/Skinny/conv2d_83/Conv2D_bn_offset"], "device": "/device:CPU:0", "attr": {"use_cudnn_on_gpu": {"b": true}, "T": {"type": "DT_FLOAT"}, "leakyrelu_alpha": {"f": 0.3}, "epsilon": {"f": 0.0}, "explicit_paddings": {"list": {}}, "num_args": {"i": "1"}, "data_format": {"s": "TkhXQw=="}, "padding": {"s": "U0FNRQ=="}, "strides": {"list": {"i": ["1", "1", "1", "1"]}}, "fused_ops": {"list": {"s": ["Qmlhc0FkZA==", "TGVha3lSZWx1"]}}, "dilations": {"list": {"i": ["1", "1", "1", "1"]}}}}, {"name": "StatefulPartitionedCall/Skinny/leaky_re_lu_5/LeakyRelu", "op": "_FusedConv2D", "input": ["StatefulPartitionedCall/Skinny/max_pooling2d_1/MaxPool", "StatefulPartitionedCall/Skinny/conv2d_7/Conv2D_weights", "StatefulPartitionedCall/Skinny/conv2d_7/Conv2D_bn_offset"], "device": "/device:CPU:0", "attr": {"padding": {"s": "U0FNRQ=="}, "fused_ops": {"list": {"s": ["Qmlhc0FkZA==", "TGVha3lSZWx1"]}}, "leakyrelu_alpha": {"f": 0.3}, "T": {"type": "DT_FLOAT"}, "explicit_paddings": {"list": {}}, "num_args": {"i": "1"}, "strides": {"list": {"i": ["1", "1", "1", "1"]}}, "epsilon": {"f": 0.0}, "data_format": {"s": "TkhXQw=="}, "use_cudnn_on_gpu": {"b": true}, "dilations": {"list": {"i": ["1", "1", "1", "1"]}}}}, {"name": "StatefulPartitionedCall/Skinny/leaky_re_lu_64/LeakyRelu", "op": "_FusedConv2D", "input": ["StatefulPartitionedCall/Skinny/leaky_re_lu_63/LeakyRelu", "StatefulPartitionedCall/Skinny/conv2d_84/Conv2D_weights", "StatefulPartitionedCall/Skinny/conv2d_84/Conv2D_bn_offset"], "device": "/device:CPU:0", "attr": {"num_args": {"i": "1"}, "strides": {"list": {"i": ["1", "1", "1", "1"]}}, "epsilon": {"f": 0.0}, "data_format": {"s": "TkhXQw=="}, "padding": {"s": "U0FNRQ=="}, "fused_ops": {"list": {"s": ["Qmlhc0FkZA==", "TGVha3lSZWx1"]}}, "use_cudnn_on_gpu": {"b": true}, "dilations": {"list": {"i": ["1", "1", "1", "1"]}}, "T": {"type": "DT_FLOAT"}, "leakyrelu_alpha": {"f": 0.3}, "explicit_paddings": {"list": {}}}}, {"name": "StatefulPartitionedCall/Skinny/leaky_re_lu_6/LeakyRelu", "op": "_FusedConv2D", "input": ["StatefulPartitionedCall/Skinny/leaky_re_lu_5/LeakyRelu", "StatefulPartitionedCall/Skinny/conv2d_8/Conv2D/ReadVariableOp", "StatefulPartitionedCall/Skinny/conv2d_8/BiasAdd/ReadVariableOp"], "device": "/device:CPU:0", "attr": {"explicit_paddings": {"list": {}}, "leakyrelu_alpha": {"f": 0.3}, "padding": {"s": "U0FNRQ=="}, "epsilon": {"f": 0.0}, "num_args": {"i": "1"}, "data_format": {"s": "TkhXQw=="}, "dilations": {"list": {"i": ["1", "1", "1", "1"]}}, "fused_ops": {"list": {"s": ["Qmlhc0FkZA==", "TGVha3lSZWx1"]}}, "use_cudnn_on_gpu": {"b": true}, "T": {"type": "DT_FLOAT"}, "strides": {"list": {"i": ["1", "1", "1", "1"]}}}}, {"name": "StatefulPartitionedCall/Skinny/conv2d_9/BiasAdd", "op": "_FusedConv2D", "input": ["StatefulPartitionedCall/Skinny/leaky_re_lu_5/LeakyRelu", "StatefulPartitionedCall/Skinny/conv2d_9/Conv2D/ReadVariableOp", "StatefulPartitionedCall/Skinny/conv2d_9/BiasAdd/ReadVariableOp"], "device": "/device:CPU:0", "attr": {"dilations": {"list": {"i": ["1", "1", "1", "1"]}}, "use_cudnn_on_gpu": {"b": true}, "padding": {"s": "U0FNRQ=="}, "strides": {"list": {"i": ["1", "1", "1", "1"]}}, "explicit_paddings": {"list": {}}, "epsilon": {"f": 0.0}, "num_args": {"i": "1"}, "data_format": {"s": "TkhXQw=="}, "fused_ops": {"list": {"s": ["Qmlhc0FkZA=="]}}, "T": {"type": "DT_FLOAT"}}}, {"name": "StatefulPartitionedCall/Skinny/conv2d_11/BiasAdd", "op": "_FusedConv2D", "input": ["StatefulPartitionedCall/Skinny/leaky_re_lu_5/LeakyRelu", "StatefulPartitionedCall/Skinny/conv2d_11/Conv2D/ReadVariableOp", "StatefulPartitionedCall/Skinny/conv2d_11/BiasAdd/ReadVariableOp"], "device": "/device:CPU:0", "attr": {"use_cudnn_on_gpu": {"b": true}, "T": {"type": "DT_FLOAT"}, "strides": {"list": {"i": ["1", "1", "1", "1"]}}, "fused_ops": {"list": {"s": ["Qmlhc0FkZA=="]}}, "explicit_paddings": {"list": {}}, "num_args": {"i": "1"}, "padding": {"s": "U0FNRQ=="}, "epsilon": {"f": 0.0}, "data_format": {"s": "TkhXQw=="}, "dilations": {"list": {"i": ["1", "1", "1", "1"]}}}}, {"name": "StatefulPartitionedCall/Skinny/max_pooling2d_2/MaxPool", "op": "MaxPool", "input": ["StatefulPartitionedCall/Skinny/leaky_re_lu_5/LeakyRelu"], "attr": {"ksize": {"list": {"i": ["1", "2", "2", "1"]}}, "padding": {"s": "U0FNRQ=="}, "explicit_paddings": {"list": {}}, "T": {"type": "DT_FLOAT"}, "data_format": {"s": "TkhXQw=="}, "strides": {"list": {"i": ["1", "1", "1", "1"]}}}}, {"name": "StatefulPartitionedCall/Skinny/leaky_re_lu_65/LeakyRelu", "op": "_FusedConv2D", "input": ["StatefulPartitionedCall/Skinny/leaky_re_lu_64/LeakyRelu", "StatefulPartitionedCall/Skinny/conv2d_85/Conv2D_weights", "StatefulPartitionedCall/Skinny/conv2d_85/Conv2D_bn_offset"], "device": "/device:CPU:0", "attr": {"explicit_paddings": {"list": {}}, "epsilon": {"f": 0.0}, "leakyrelu_alpha": {"f": 0.3}, "T": {"type": "DT_FLOAT"}, "num_args": {"i": "1"}, "data_format": {"s": "TkhXQw=="}, "strides": {"list": {"i": ["1", "1", "1", "1"]}}, "dilations": {"list": {"i": ["1", "1", "1", "1"]}}, "fused_ops": {"list": {"s": ["Qmlhc0FkZA==", "TGVha3lSZWx1"]}}, "padding": {"s": "U0FNRQ=="}, "use_cudnn_on_gpu": {"b": true}}}, {"name": "StatefulPartitionedCall/Skinny/leaky_re_lu_7/LeakyRelu", "op": "_FusedConv2D", "input": ["StatefulPartitionedCall/Skinny/conv2d_9/BiasAdd", "StatefulPartitionedCall/Skinny/conv2d_10/Conv2D/ReadVariableOp", "StatefulPartitionedCall/Skinny/conv2d_10/BiasAdd/ReadVariableOp"], "device": "/device:CPU:0", "attr": {"epsilon": {"f": 0.0}, "leakyrelu_alpha": {"f": 0.3}, "num_args": {"i": "1"}, "data_format": {"s": "TkhXQw=="}, "fused_ops": {"list": {"s": ["Qmlhc0FkZA==", "TGVha3lSZWx1"]}}, "padding": {"s": "U0FNRQ=="}, "strides": {"list": {"i": ["1", "1", "1", "1"]}}, "dilations": {"list": {"i": ["1", "1", "1", "1"]}}, "use_cudnn_on_gpu": {"b": true}, "T": {"type": "DT_FLOAT"}, "explicit_paddings": {"list": {}}}}, {"name": "StatefulPartitionedCall/Skinny/leaky_re_lu_8/LeakyRelu", "op": "_FusedConv2D", "input": ["StatefulPartitionedCall/Skinny/conv2d_11/BiasAdd", "StatefulPartitionedCall/Skinny/conv2d_12/Conv2D/ReadVariableOp", "StatefulPartitionedCall/Skinny/conv2d_12/BiasAdd/ReadVariableOp"], "device": "/device:CPU:0", "attr": {"data_format": {"s": "TkhXQw=="}, "dilations": {"list": {"i": ["1", "1", "1", "1"]}}, "use_cudnn_on_gpu": {"b": true}, "fused_ops": {"list": {"s": ["Qmlhc0FkZA==", "TGVha3lSZWx1"]}}, "padding": {"s": "U0FNRQ=="}, "explicit_paddings": {"list": {}}, "leakyrelu_alpha": {"f": 0.3}, "T": {"type": "DT_FLOAT"}, "num_args": {"i": "1"}, "strides": {"list": {"i": ["1", "1", "1", "1"]}}, "epsilon": {"f": 0.0}}}, {"name": "StatefulPartitionedCall/Skinny/leaky_re_lu_9/LeakyRelu", "op": "_FusedConv2D", "input": ["StatefulPartitionedCall/Skinny/max_pooling2d_2/MaxPool", "StatefulPartitionedCall/Skinny/conv2d_13/Conv2D/ReadVariableOp", "StatefulPartitionedCall/Skinny/conv2d_13/BiasAdd/ReadVariableOp"], "device": "/device:CPU:0", "attr": {"T": {"type": "DT_FLOAT"}, "explicit_paddings": {"list": {}}, "leakyrelu_alpha": {"f": 0.3}, "num_args": {"i": "1"}, "strides": {"list": {"i": ["1", "1", "1", "1"]}}, "epsilon": {"f": 0.0}, "padding": {"s": "U0FNRQ=="}, "fused_ops": {"list": {"s": ["Qmlhc0FkZA==", "TGVha3lSZWx1"]}}, "data_format": {"s": "TkhXQw=="}, "use_cudnn_on_gpu": {"b": true}, "dilations": {"list": {"i": ["1", "1", "1", "1"]}}}}, {"name": "StatefulPartitionedCall/Skinny/tf.concat_1/concat", "op": "ConcatV2", "input": ["StatefulPartitionedCall/Skinny/leaky_re_lu_6/LeakyRelu", "StatefulPartitionedCall/Skinny/leaky_re_lu_7/LeakyRelu", "StatefulPartitionedCall/Skinny/leaky_re_lu_8/LeakyRelu", "StatefulPartitionedCall/Skinny/leaky_re_lu_9/LeakyRelu", "StatefulPartitionedCall/Skinny/tf.concat_1/concat/axis"], "attr": {"Tidx": {"type": "DT_INT32"}, "T": {"type": "DT_FLOAT"}, "N": {"i": "4"}}}, {"name": "StatefulPartitionedCall/Skinny/max_pooling2d_3/MaxPool", "op": "MaxPool", "input": ["StatefulPartitionedCall/Skinny/tf.concat_1/concat"], "attr": {"ksize": {"list": {"i": ["1", "2", "2", "1"]}}, "explicit_paddings": {"list": {}}, "T": {"type": "DT_FLOAT"}, "data_format": {"s": "TkhXQw=="}, "padding": {"s": "VkFMSUQ="}, "strides": {"list": {"i": ["1", "2", "2", "1"]}}}}, {"name": "StatefulPartitionedCall/Skinny/leaky_re_lu_55/LeakyRelu", "op": "_FusedConv2D", "input": ["StatefulPartitionedCall/Skinny/tf.concat_1/concat", "StatefulPartitionedCall/Skinny/conv2d_73/Conv2D_weights", "StatefulPartitionedCall/Skinny/conv2d_73/Conv2D_bn_offset"], "device": "/device:CPU:0", "attr": {"num_args": {"i": "1"}, "padding": {"s": "U0FNRQ=="}, "epsilon": {"f": 0.0}, "data_format": {"s": "TkhXQw=="}, "T": {"type": "DT_FLOAT"}, "use_cudnn_on_gpu": {"b": true}, "dilations": {"list": {"i": ["1", "1", "1", "1"]}}, "strides": {"list": {"i": ["1", "1", "1", "1"]}}, "fused_ops": {"list": {"s": ["Qmlhc0FkZA==", "TGVha3lSZWx1"]}}, "explicit_paddings": {"list": {}}, "leakyrelu_alpha": {"f": 0.3}}}, {"name": "StatefulPartitionedCall/Skinny/leaky_re_lu_10/LeakyRelu", "op": "_FusedConv2D", "input": ["StatefulPartitionedCall/Skinny/max_pooling2d_3/MaxPool", "StatefulPartitionedCall/Skinny/conv2d_14/Conv2D_weights", "StatefulPartitionedCall/Skinny/conv2d_14/Conv2D_bn_offset"], "device": "/device:CPU:0", "attr": {"fused_ops": {"list": {"s": ["Qmlhc0FkZA==", "TGVha3lSZWx1"]}}, "data_format": {"s": "TkhXQw=="}, "dilations": {"list": {"i": ["1", "1", "1", "1"]}}, "use_cudnn_on_gpu": {"b": true}, "strides": {"list": {"i": ["1", "1", "1", "1"]}}, "padding": {"s": "U0FNRQ=="}, "explicit_paddings": {"list": {}}, "leakyrelu_alpha": {"f": 0.3}, "num_args": {"i": "1"}, "T": {"type": "DT_FLOAT"}, "epsilon": {"f": 0.0}}}, {"name": "StatefulPartitionedCall/Skinny/leaky_re_lu_56/LeakyRelu", "op": "_FusedConv2D", "input": ["StatefulPartitionedCall/Skinny/leaky_re_lu_55/LeakyRelu", "StatefulPartitionedCall/Skinny/conv2d_74/Conv2D_weights", "StatefulPartitionedCall/Skinny/conv2d_74/Conv2D_bn_offset"], "device": "/device:CPU:0", "attr": {"data_format": {"s": "TkhXQw=="}, "dilations": {"list": {"i": ["1", "1", "1", "1"]}}, "padding": {"s": "U0FNRQ=="}, "fused_ops": {"list": {"s": ["Qmlhc0FkZA==", "TGVha3lSZWx1"]}}, "use_cudnn_on_gpu": {"b": true}, "explicit_paddings": {"list": {}}, "T": {"type": "DT_FLOAT"}, "leakyrelu_alpha": {"f": 0.3}, "epsilon": {"f": 0.0}, "num_args": {"i": "1"}, "strides": {"list": {"i": ["1", "1", "1", "1"]}}}}, {"name": "StatefulPartitionedCall/Skinny/leaky_re_lu_11/LeakyRelu", "op": "_FusedConv2D", "input": ["StatefulPartitionedCall/Skinny/leaky_re_lu_10/LeakyRelu", "StatefulPartitionedCall/Skinny/conv2d_15/Conv2D/ReadVariableOp", "StatefulPartitionedCall/Skinny/conv2d_15/BiasAdd/ReadVariableOp"], "device": "/device:CPU:0", "attr": {"use_cudnn_on_gpu": {"b": true}, "T": {"type": "DT_FLOAT"}, "explicit_paddings": {"list": {}}, "leakyrelu_alpha": {"f": 0.3}, "epsilon": {"f": 0.0}, "padding": {"s": "U0FNRQ=="}, "num_args": {"i": "1"}, "strides": {"list": {"i": ["1", "1", "1", "1"]}}, "fused_ops": {"list": {"s": ["Qmlhc0FkZA==", "TGVha3lSZWx1"]}}, "data_format": {"s": "TkhXQw=="}, "dilations": {"list": {"i": ["1", "1", "1", "1"]}}}}, {"name": "StatefulPartitionedCall/Skinny/conv2d_16/BiasAdd", "op": "_FusedConv2D", "input": ["StatefulPartitionedCall/Skinny/leaky_re_lu_10/LeakyRelu", "StatefulPartitionedCall/Skinny/conv2d_16/Conv2D/ReadVariableOp", "StatefulPartitionedCall/Skinny/conv2d_16/BiasAdd/ReadVariableOp"], "device": "/device:CPU:0", "attr": {"fused_ops": {"list": {"s": ["Qmlhc0FkZA=="]}}, "padding": {"s": "U0FNRQ=="}, "T": {"type": "DT_FLOAT"}, "num_args": {"i": "1"}, "explicit_paddings": {"list": {}}, "data_format": {"s": "TkhXQw=="}, "epsilon": {"f": 0.0}, "strides": {"list": {"i": ["1", "1", "1", "1"]}}, "use_cudnn_on_gpu": {"b": true}, "dilations": {"list": {"i": ["1", "1", "1", "1"]}}}}, {"name": "StatefulPartitionedCall/Skinny/conv2d_18/BiasAdd", "op": "_FusedConv2D", "input": ["StatefulPartitionedCall/Skinny/leaky_re_lu_10/LeakyRelu", "StatefulPartitionedCall/Skinny/conv2d_18/Conv2D/ReadVariableOp", "StatefulPartitionedCall/Skinny/conv2d_18/BiasAdd/ReadVariableOp"], "device": "/device:CPU:0", "attr": {"data_format": {"s": "TkhXQw=="}, "epsilon": {"f": 0.0}, "strides": {"list": {"i": ["1", "1", "1", "1"]}}, "fused_ops": {"list": {"s": ["Qmlhc0FkZA=="]}}, "dilations": {"list": {"i": ["1", "1", "1", "1"]}}, "use_cudnn_on_gpu": {"b": true}, "padding": {"s": "U0FNRQ=="}, "T": {"type": "DT_FLOAT"}, "num_args": {"i": "1"}, "explicit_paddings": {"list": {}}}}, {"name": "StatefulPartitionedCall/Skinny/max_pooling2d_4/MaxPool", "op": "MaxPool", "input": ["StatefulPartitionedCall/Skinny/leaky_re_lu_10/LeakyRelu"], "attr": {"data_format": {"s": "TkhXQw=="}, "explicit_paddings": {"list": {}}, "padding": {"s": "U0FNRQ=="}, "ksize": {"list": {"i": ["1", "2", "2", "1"]}}, "T": {"type": "DT_FLOAT"}, "strides": {"list": {"i": ["1", "1", "1", "1"]}}}}, {"name": "StatefulPartitionedCall/Skinny/leaky_re_lu_57/LeakyRelu", "op": "_FusedConv2D", "input": ["StatefulPartitionedCall/Skinny/leaky_re_lu_56/LeakyRelu", "StatefulPartitionedCall/Skinny/conv2d_75/Conv2D_weights", "StatefulPartitionedCall/Skinny/conv2d_75/Conv2D_bn_offset"], "device": "/device:CPU:0", "attr": {"dilations": {"list": {"i": ["1", "1", "1", "1"]}}, "use_cudnn_on_gpu": {"b": true}, "padding": {"s": "U0FNRQ=="}, "strides": {"list": {"i": ["1", "1", "1", "1"]}}, "num_args": {"i": "1"}, "data_format": {"s": "TkhXQw=="}, "leakyrelu_alpha": {"f": 0.3}, "epsilon": {"f": 0.0}, "T": {"type": "DT_FLOAT"}, "explicit_paddings": {"list": {}}, "fused_ops": {"list": {"s": ["Qmlhc0FkZA==", "TGVha3lSZWx1"]}}}}, {"name": "StatefulPartitionedCall/Skinny/leaky_re_lu_12/LeakyRelu", "op": "_FusedConv2D", "input": ["StatefulPartitionedCall/Skinny/conv2d_16/BiasAdd", "StatefulPartitionedCall/Skinny/conv2d_17/Conv2D/ReadVariableOp", "StatefulPartitionedCall/Skinny/conv2d_17/BiasAdd/ReadVariableOp"], "device": "/device:CPU:0", "attr": {"fused_ops": {"list": {"s": ["Qmlhc0FkZA==", "TGVha3lSZWx1"]}}, "strides": {"list": {"i": ["1", "1", "1", "1"]}}, "num_args": {"i": "1"}, "leakyrelu_alpha": {"f": 0.3}, "explicit_paddings": {"list": {}}, "data_format": {"s": "TkhXQw=="}, "epsilon": {"f": 0.0}, "padding": {"s": "U0FNRQ=="}, "dilations": {"list": {"i": ["1", "1", "1", "1"]}}, "T": {"type": "DT_FLOAT"}, "use_cudnn_on_gpu": {"b": true}}}, {"name": "StatefulPartitionedCall/Skinny/leaky_re_lu_13/LeakyRelu", "op": "_FusedConv2D", "input": ["StatefulPartitionedCall/Skinny/conv2d_18/BiasAdd", "StatefulPartitionedCall/Skinny/conv2d_19/Conv2D/ReadVariableOp", "StatefulPartitionedCall/Skinny/conv2d_19/BiasAdd/ReadVariableOp"], "device": "/device:CPU:0", "attr": {"num_args": {"i": "1"}, "leakyrelu_alpha": {"f": 0.3}, "padding": {"s": "U0FNRQ=="}, "T": {"type": "DT_FLOAT"}, "explicit_paddings": {"list": {}}, "data_format": {"s": "TkhXQw=="}, "epsilon": {"f": 0.0}, "fused_ops": {"list": {"s": ["Qmlhc0FkZA==", "TGVha3lSZWx1"]}}, "dilations": {"list": {"i": ["1", "1", "1", "1"]}}, "use_cudnn_on_gpu": {"b": true}, "strides": {"list": {"i": ["1", "1", "1", "1"]}}}}, {"name": "StatefulPartitionedCall/Skinny/leaky_re_lu_14/LeakyRelu", "op": "_FusedConv2D", "input": ["StatefulPartitionedCall/Skinny/max_pooling2d_4/MaxPool", "StatefulPartitionedCall/Skinny/conv2d_20/Conv2D/ReadVariableOp", "StatefulPartitionedCall/Skinny/conv2d_20/BiasAdd/ReadVariableOp"], "device": "/device:CPU:0", "attr": {"padding": {"s": "U0FNRQ=="}, "T": {"type": "DT_FLOAT"}, "num_args": {"i": "1"}, "data_format": {"s": "TkhXQw=="}, "epsilon": {"f": 0.0}, "explicit_paddings": {"list": {}}, "leakyrelu_alpha": {"f": 0.3}, "dilations": {"list": {"i": ["1", "1", "1", "1"]}}, "strides": {"list": {"i": ["1", "1", "1", "1"]}}, "use_cudnn_on_gpu": {"b": true}, "fused_ops": {"list": {"s": ["Qmlhc0FkZA==", "TGVha3lSZWx1"]}}}}, {"name": "StatefulPartitionedCall/Skinny/tf.concat_2/concat", "op": "ConcatV2", "input": ["StatefulPartitionedCall/Skinny/leaky_re_lu_11/LeakyRelu", "StatefulPartitionedCall/Skinny/leaky_re_lu_12/LeakyRelu", "StatefulPartitionedCall/Skinny/leaky_re_lu_13/LeakyRelu", "StatefulPartitionedCall/Skinny/leaky_re_lu_14/LeakyRelu", "StatefulPartitionedCall/Skinny/tf.concat_2/concat/axis"], "attr": {"T": {"type": "DT_FLOAT"}, "Tidx": {"type": "DT_INT32"}, "N": {"i": "4"}}}, {"name": "StatefulPartitionedCall/Skinny/max_pooling2d_5/MaxPool", "op": "MaxPool", "input": ["StatefulPartitionedCall/Skinny/tf.concat_2/concat"], "attr": {"strides": {"list": {"i": ["1", "2", "2", "1"]}}, "data_format": {"s": "TkhXQw=="}, "ksize": {"list": {"i": ["1", "2", "2", "1"]}}, "padding": {"s": "VkFMSUQ="}, "T": {"type": "DT_FLOAT"}, "explicit_paddings": {"list": {}}}}, {"name": "StatefulPartitionedCall/Skinny/leaky_re_lu_47/LeakyRelu", "op": "_FusedConv2D", "input": ["StatefulPartitionedCall/Skinny/tf.concat_2/concat", "StatefulPartitionedCall/Skinny/conv2d_63/Conv2D_weights", "StatefulPartitionedCall/Skinny/conv2d_63/Conv2D_bn_offset"], "device": "/device:CPU:0", "attr": {"num_args": {"i": "1"}, "leakyrelu_alpha": {"f": 0.3}, "explicit_paddings": {"list": {}}, "data_format": {"s": "TkhXQw=="}, "strides": {"list": {"i": ["1", "1", "1", "1"]}}, "fused_ops": {"list": {"s": ["Qmlhc0FkZA==", "TGVha3lSZWx1"]}}, "epsilon": {"f": 0.0}, "padding": {"s": "U0FNRQ=="}, "use_cudnn_on_gpu": {"b": true}, "dilations": {"list": {"i": ["1", "1", "1", "1"]}}, "T": {"type": "DT_FLOAT"}}}, {"name": "StatefulPartitionedCall/Skinny/leaky_re_lu_15/LeakyRelu", "op": "_FusedConv2D", "input": ["StatefulPartitionedCall/Skinny/max_pooling2d_5/MaxPool", "StatefulPartitionedCall/Skinny/conv2d_21/Conv2D_weights", "StatefulPartitionedCall/Skinny/conv2d_21/Conv2D_bn_offset"], "device": "/device:CPU:0", "attr": {"fused_ops": {"list": {"s": ["Qmlhc0FkZA==", "TGVha3lSZWx1"]}}, "use_cudnn_on_gpu": {"b": true}, "strides": {"list": {"i": ["1", "1", "1", "1"]}}, "data_format": {"s": "TkhXQw=="}, "leakyrelu_alpha": {"f": 0.3}, "num_args": {"i": "1"}, "explicit_paddings": {"list": {}}, "padding": {"s": "U0FNRQ=="}, "epsilon": {"f": 0.0}, "dilations": {"list": {"i": ["1", "1", "1", "1"]}}, "T": {"type": "DT_FLOAT"}}}, {"name": "StatefulPartitionedCall/Skinny/leaky_re_lu_48/LeakyRelu", "op": "_FusedConv2D", "input": ["StatefulPartitionedCall/Skinny/leaky_re_lu_47/LeakyRelu", "StatefulPartitionedCall/Skinny/conv2d_64/Conv2D_weights", "StatefulPartitionedCall/Skinny/conv2d_64/Conv2D_bn_offset"], "device": "/device:CPU:0", "attr": {"padding": {"s": "U0FNRQ=="}, "strides": {"list": {"i": ["1", "1", "1", "1"]}}, "num_args": {"i": "1"}, "T": {"type": "DT_FLOAT"}, "leakyrelu_alpha": {"f": 0.3}, "epsilon": {"f": 0.0}, "data_format": {"s": "TkhXQw=="}, "explicit_paddings": {"list": {}}, "fused_ops": {"list": {"s": ["Qmlhc0FkZA==", "TGVha3lSZWx1"]}}, "dilations": {"list": {"i": ["1", "1", "1", "1"]}}, "use_cudnn_on_gpu": {"b": true}}}, {"name": "StatefulPartitionedCall/Skinny/leaky_re_lu_16/LeakyRelu", "op": "_FusedConv2D", "input": ["StatefulPartitionedCall/Skinny/leaky_re_lu_15/LeakyRelu", "StatefulPartitionedCall/Skinny/conv2d_22/Conv2D/ReadVariableOp", "StatefulPartitionedCall/Skinny/conv2d_22/BiasAdd/ReadVariableOp"], "device": "/device:CPU:0", "attr": {"leakyrelu_alpha": {"f": 0.3}, "explicit_paddings": {"list": {}}, "data_format": {"s": "TkhXQw=="}, "epsilon": {"f": 0.0}, "T": {"type": "DT_FLOAT"}, "padding": {"s": "U0FNRQ=="}, "use_cudnn_on_gpu": {"b": true}, "dilations": {"list": {"i": ["1", "1", "1", "1"]}}, "fused_ops": {"list": {"s": ["Qmlhc0FkZA==", "TGVha3lSZWx1"]}}, "strides": {"list": {"i": ["1", "1", "1", "1"]}}, "num_args": {"i": "1"}}}, {"name": "StatefulPartitionedCall/Skinny/conv2d_23/BiasAdd", "op": "_FusedConv2D", "input": ["StatefulPartitionedCall/Skinny/leaky_re_lu_15/LeakyRelu", "StatefulPartitionedCall/Skinny/conv2d_23/Conv2D/ReadVariableOp", "StatefulPartitionedCall/Skinny/conv2d_23/BiasAdd/ReadVariableOp"], "device": "/device:CPU:0", "attr": {"fused_ops": {"list": {"s": ["Qmlhc0FkZA=="]}}, "use_cudnn_on_gpu": {"b": true}, "dilations": {"list": {"i": ["1", "1", "1", "1"]}}, "strides": {"list": {"i": ["1", "1", "1", "1"]}}, "num_args": {"i": "1"}, "T": {"type": "DT_FLOAT"}, "padding": {"s": "U0FNRQ=="}, "explicit_paddings": {"list": {}}, "epsilon": {"f": 0.0}, "data_format": {"s": "TkhXQw=="}}}, {"name": "StatefulPartitionedCall/Skinny/conv2d_25/BiasAdd", "op": "_FusedConv2D", "input": ["StatefulPartitionedCall/Skinny/leaky_re_lu_15/LeakyRelu", "StatefulPartitionedCall/Skinny/conv2d_25/Conv2D/ReadVariableOp", "StatefulPartitionedCall/Skinny/conv2d_25/BiasAdd/ReadVariableOp"], "device": "/device:CPU:0", "attr": {"dilations": {"list": {"i": ["1", "1", "1", "1"]}}, "strides": {"list": {"i": ["1", "1", "1", "1"]}}, "use_cudnn_on_gpu": {"b": true}, "fused_ops": {"list": {"s": ["Qmlhc0FkZA=="]}}, "padding": {"s": "U0FNRQ=="}, "T": {"type": "DT_FLOAT"}, "num_args": {"i": "1"}, "data_format": {"s": "TkhXQw=="}, "explicit_paddings": {"list": {}}, "epsilon": {"f": 0.0}}}, {"name": "StatefulPartitionedCall/Skinny/max_pooling2d_6/MaxPool", "op": "MaxPool", "input": ["StatefulPartitionedCall/Skinny/leaky_re_lu_15/LeakyRelu"], "attr": {"T": {"type": "DT_FLOAT"}, "data_format": {"s": "TkhXQw=="}, "explicit_paddings": {"list": {}}, "padding": {"s": "U0FNRQ=="}, "strides": {"list": {"i": ["1", "1", "1", "1"]}}, "ksize": {"list": {"i": ["1", "2", "2", "1"]}}}}, {"name": "StatefulPartitionedCall/Skinny/leaky_re_lu_49/LeakyRelu", "op": "_FusedConv2D", "input": ["StatefulPartitionedCall/Skinny/leaky_re_lu_48/LeakyRelu", "StatefulPartitionedCall/Skinny/conv2d_65/Conv2D_weights", "StatefulPartitionedCall/Skinny/conv2d_65/Conv2D_bn_offset"], "device": "/device:CPU:0", "attr": {"padding": {"s": "U0FNRQ=="}, "T": {"type": "DT_FLOAT"}, "num_args": {"i": "1"}, "explicit_paddings": {"list": {}}, "leakyrelu_alpha": {"f": 0.3}, "strides": {"list": {"i": ["1", "1", "1", "1"]}}, "data_format": {"s": "TkhXQw=="}, "epsilon": {"f": 0.0}, "use_cudnn_on_gpu": {"b": true}, "dilations": {"list": {"i": ["1", "1", "1", "1"]}}, "fused_ops": {"list": {"s": ["Qmlhc0FkZA==", "TGVha3lSZWx1"]}}}}, {"name": "StatefulPartitionedCall/Skinny/leaky_re_lu_17/LeakyRelu", "op": "_FusedConv2D", "input": ["StatefulPartitionedCall/Skinny/conv2d_23/BiasAdd", "StatefulPartitionedCall/Skinny/conv2d_24/Conv2D/ReadVariableOp", "StatefulPartitionedCall/Skinny/conv2d_24/BiasAdd/ReadVariableOp"], "device": "/device:CPU:0", "attr": {"leakyrelu_alpha": {"f": 0.3}, "strides": {"list": {"i": ["1", "1", "1", "1"]}}, "data_format": {"s": "TkhXQw=="}, "fused_ops": {"list": {"s": ["Qmlhc0FkZA==", "TGVha3lSZWx1"]}}, "epsilon": {"f": 0.0}, "dilations": {"list": {"i": ["1", "1", "1", "1"]}}, "padding": {"s": "U0FNRQ=="}, "use_cudnn_on_gpu": {"b": true}, "T": {"type": "DT_FLOAT"}, "num_args": {"i": "1"}, "explicit_paddings": {"list": {}}}}, {"name": "StatefulPartitionedCall/Skinny/leaky_re_lu_18/LeakyRelu", "op": "_FusedConv2D", "input": ["StatefulPartitionedCall/Skinny/conv2d_25/BiasAdd", "StatefulPartitionedCall/Skinny/conv2d_26/Conv2D/ReadVariableOp", "StatefulPartitionedCall/Skinny/conv2d_26/BiasAdd/ReadVariableOp"], "device": "/device:CPU:0", "attr": {"num_args": {"i": "1"}, "data_format": {"s": "TkhXQw=="}, "explicit_paddings": {"list": {}}, "leakyrelu_alpha": {"f": 0.3}, "padding": {"s": "U0FNRQ=="}, "epsilon": {"f": 0.0}, "dilations": {"list": {"i": ["1", "1", "1", "1"]}}, "T": {"type": "DT_FLOAT"}, "fused_ops": {"list": {"s": ["Qmlhc0FkZA==", "TGVha3lSZWx1"]}}, "use_cudnn_on_gpu": {"b": true}, "strides": {"list": {"i": ["1", "1", "1", "1"]}}}}, {"name": "StatefulPartitionedCall/Skinny/leaky_re_lu_19/LeakyRelu", "op": "_FusedConv2D", "input": ["StatefulPartitionedCall/Skinny/max_pooling2d_6/MaxPool", "StatefulPartitionedCall/Skinny/conv2d_27/Conv2D/ReadVariableOp", "StatefulPartitionedCall/Skinny/conv2d_27/BiasAdd/ReadVariableOp"], "device": "/device:CPU:0", "attr": {"use_cudnn_on_gpu": {"b": true}, "padding": {"s": "U0FNRQ=="}, "strides": {"list": {"i": ["1", "1", "1", "1"]}}, "num_args": {"i": "1"}, "T": {"type": "DT_FLOAT"}, "data_format": {"s": "TkhXQw=="}, "explicit_paddings": {"list": {}}, "leakyrelu_alpha": {"f": 0.3}, "fused_ops": {"list": {"s": ["Qmlhc0FkZA==", "TGVha3lSZWx1"]}}, "epsilon": {"f": 0.0}, "dilations": {"list": {"i": ["1", "1", "1", "1"]}}}}, {"name": "StatefulPartitionedCall/Skinny/tf.concat_3/concat", "op": "ConcatV2", "input": ["StatefulPartitionedCall/Skinny/leaky_re_lu_16/LeakyRelu", "StatefulPartitionedCall/Skinny/leaky_re_lu_17/LeakyRelu", "StatefulPartitionedCall/Skinny/leaky_re_lu_18/LeakyRelu", "StatefulPartitionedCall/Skinny/leaky_re_lu_19/LeakyRelu", "StatefulPartitionedCall/Skinny/tf.concat_3/concat/axis"], "attr": {"Tidx": {"type": "DT_INT32"}, "N": {"i": "4"}, "T": {"type": "DT_FLOAT"}}}, {"name": "StatefulPartitionedCall/Skinny/max_pooling2d_7/MaxPool", "op": "MaxPool", "input": ["StatefulPartitionedCall/Skinny/tf.concat_3/concat"], "attr": {"padding": {"s": "VkFMSUQ="}, "T": {"type": "DT_FLOAT"}, "explicit_paddings": {"list": {}}, "data_format": {"s": "TkhXQw=="}, "strides": {"list": {"i": ["1", "2", "2", "1"]}}, "ksize": {"list": {"i": ["1", "2", "2", "1"]}}}}, {"name": "StatefulPartitionedCall/Skinny/leaky_re_lu_39/LeakyRelu", "op": "_FusedConv2D", "input": ["StatefulPartitionedCall/Skinny/tf.concat_3/concat", "StatefulPartitionedCall/Skinny/conv2d_53/Conv2D_weights", "StatefulPartitionedCall/Skinny/conv2d_53/Conv2D_bn_offset"], "device": "/device:CPU:0", "attr": {"T": {"type": "DT_FLOAT"}, "explicit_paddings": {"list": {}}, "num_args": {"i": "1"}, "data_format": {"s": "TkhXQw=="}, "leakyrelu_alpha": {"f": 0.3}, "epsilon": {"f": 0.0}, "dilations": {"list": {"i": ["1", "1", "1", "1"]}}, "strides": {"list": {"i": ["1", "1", "1", "1"]}}, "fused_ops": {"list": {"s": ["Qmlhc0FkZA==", "TGVha3lSZWx1"]}}, "use_cudnn_on_gpu": {"b": true}, "padding": {"s": "U0FNRQ=="}}}, {"name": "StatefulPartitionedCall/Skinny/leaky_re_lu_20/LeakyRelu", "op": "_FusedConv2D", "input": ["StatefulPartitionedCall/Skinny/max_pooling2d_7/MaxPool", "StatefulPartitionedCall/Skinny/conv2d_28/Conv2D_weights", "StatefulPartitionedCall/Skinny/conv2d_28/Conv2D_bn_offset"], "device": "/device:CPU:0", "attr": {"explicit_paddings": {"list": {}}, "fused_ops": {"list": {"s": ["Qmlhc0FkZA==", "TGVha3lSZWx1"]}}, "num_args": {"i": "1"}, "data_format": {"s": "TkhXQw=="}, "leakyrelu_alpha": {"f": 0.3}, "epsilon": {"f": 0.0}, "dilations": {"list": {"i": ["1", "1", "1", "1"]}}, "padding": {"s": "U0FNRQ=="}, "strides": {"list": {"i": ["1", "1", "1", "1"]}}, "use_cudnn_on_gpu": {"b": true}, "T": {"type": "DT_FLOAT"}}}, {"name": "StatefulPartitionedCall/Skinny/leaky_re_lu_40/LeakyRelu", "op": "_FusedConv2D", "input": ["StatefulPartitionedCall/Skinny/leaky_re_lu_39/LeakyRelu", "StatefulPartitionedCall/Skinny/conv2d_54/Conv2D_weights", "StatefulPartitionedCall/Skinny/conv2d_54/Conv2D_bn_offset"], "device": "/device:CPU:0", "attr": {"data_format": {"s": "TkhXQw=="}, "epsilon": {"f": 0.0}, "use_cudnn_on_gpu": {"b": true}, "dilations": {"list": {"i": ["1", "1", "1", "1"]}}, "fused_ops": {"list": {"s": ["Qmlhc0FkZA==", "TGVha3lSZWx1"]}}, "padding": {"s": "U0FNRQ=="}, "T": {"type": "DT_FLOAT"}, "explicit_paddings": {"list": {}}, "num_args": {"i": "1"}, "leakyrelu_alpha": {"f": 0.3}, "strides": {"list": {"i": ["1", "1", "1", "1"]}}}}, {"name": "StatefulPartitionedCall/Skinny/leaky_re_lu_21/LeakyRelu", "op": "_FusedConv2D", "input": ["StatefulPartitionedCall/Skinny/leaky_re_lu_20/LeakyRelu", "StatefulPartitionedCall/Skinny/conv2d_29/Conv2D/ReadVariableOp", "StatefulPartitionedCall/Skinny/conv2d_29/BiasAdd/ReadVariableOp"], "device": "/device:CPU:0", "attr": {"explicit_paddings": {"list": {}}, "num_args": {"i": "1"}, "leakyrelu_alpha": {"f": 0.3}, "strides": {"list": {"i": ["1", "1", "1", "1"]}}, "data_format": {"s": "TkhXQw=="}, "fused_ops": {"list": {"s": ["Qmlhc0FkZA==", "TGVha3lSZWx1"]}}, "epsilon": {"f": 0.0}, "use_cudnn_on_gpu": {"b": true}, "dilations": {"list": {"i": ["1", "1", "1", "1"]}}, "padding": {"s": "U0FNRQ=="}, "T": {"type": "DT_FLOAT"}}}, {"name": "StatefulPartitionedCall/Skinny/conv2d_30/BiasAdd", "op": "_FusedConv2D", "input": ["StatefulPartitionedCall/Skinny/leaky_re_lu_20/LeakyRelu", "StatefulPartitionedCall/Skinny/conv2d_30/Conv2D/ReadVariableOp", "StatefulPartitionedCall/Skinny/conv2d_30/BiasAdd/ReadVariableOp"], "device": "/device:CPU:0", "attr": {"use_cudnn_on_gpu": {"b": true}, "T": {"type": "DT_FLOAT"}, "fused_ops": {"list": {"s": ["Qmlhc0FkZA=="]}}, "strides": {"list": {"i": ["1", "1", "1", "1"]}}, "num_args": {"i": "1"}, "data_format": {"s": "TkhXQw=="}, "explicit_paddings": {"list": {}}, "padding": {"s": "U0FNRQ=="}, "epsilon": {"f": 0.0}, "dilations": {"list": {"i": ["1", "1", "1", "1"]}}}}, {"name": "StatefulPartitionedCall/Skinny/conv2d_32/BiasAdd", "op": "_FusedConv2D", "input": ["StatefulPartitionedCall/Skinny/leaky_re_lu_20/LeakyRelu", "StatefulPartitionedCall/Skinny/conv2d_32/Conv2D/ReadVariableOp", "StatefulPartitionedCall/Skinny/conv2d_32/BiasAdd/ReadVariableOp"], "device": "/device:CPU:0", "attr": {"padding": {"s": "U0FNRQ=="}, "strides": {"list": {"i": ["1", "1", "1", "1"]}}, "explicit_paddings": {"list": {}}, "num_args": {"i": "1"}, "T": {"type": "DT_FLOAT"}, "data_format": {"s": "TkhXQw=="}, "fused_ops": {"list": {"s": ["Qmlhc0FkZA=="]}}, "epsilon": {"f": 0.0}, "dilations": {"list": {"i": ["1", "1", "1", "1"]}}, "use_cudnn_on_gpu": {"b": true}}}, {"name": "StatefulPartitionedCall/Skinny/max_pooling2d_8/MaxPool", "op": "MaxPool", "input": ["StatefulPartitionedCall/Skinny/leaky_re_lu_20/LeakyRelu"], "attr": {"ksize": {"list": {"i": ["1", "2", "2", "1"]}}, "data_format": {"s": "TkhXQw=="}, "padding": {"s": "U0FNRQ=="}, "T": {"type": "DT_FLOAT"}, "strides": {"list": {"i": ["1", "1", "1", "1"]}}, "explicit_paddings": {"list": {}}}}, {"name": "StatefulPartitionedCall/Skinny/leaky_re_lu_41/LeakyRelu", "op": "_FusedConv2D", "input": ["StatefulPartitionedCall/Skinny/leaky_re_lu_40/LeakyRelu", "StatefulPartitionedCall/Skinny/conv2d_55/Conv2D_weights", "StatefulPartitionedCall/Skinny/conv2d_55/Conv2D_bn_offset"], "device": "/device:CPU:0", "attr": {"data_format": {"s": "TkhXQw=="}, "fused_ops": {"list": {"s": ["Qmlhc0FkZA==", "TGVha3lSZWx1"]}}, "use_cudnn_on_gpu": {"b": true}, "dilations": {"list": {"i": ["1", "1", "1", "1"]}}, "strides": {"list": {"i": ["1", "1", "1", "1"]}}, "T": {"type": "DT_FLOAT"}, "epsilon": {"f": 0.0}, "padding": {"s": "U0FNRQ=="}, "leakyrelu_alpha": {"f": 0.3}, "explicit_paddings": {"list": {}}, "num_args": {"i": "1"}}}, {"name": "StatefulPartitionedCall/Skinny/leaky_re_lu_22/LeakyRelu", "op": "_FusedConv2D", "input": ["StatefulPartitionedCall/Skinny/conv2d_30/BiasAdd", "StatefulPartitionedCall/Skinny/conv2d_31/Conv2D/ReadVariableOp", "StatefulPartitionedCall/Skinny/conv2d_31/BiasAdd/ReadVariableOp"], "device": "/device:CPU:0", "attr": {"leakyrelu_alpha": {"f": 0.3}, "explicit_paddings": {"list": {}}, "num_args": {"i": "1"}, "data_format": {"s": "TkhXQw=="}, "strides": {"list": {"i": ["1", "1", "1", "1"]}}, "dilations": {"list": {"i": ["1", "1", "1", "1"]}}, "padding": {"s": "U0FNRQ=="}, "use_cudnn_on_gpu": {"b": true}, "fused_ops": {"list": {"s": ["Qmlhc0FkZA==", "TGVha3lSZWx1"]}}, "epsilon": {"f": 0.0}, "T": {"type": "DT_FLOAT"}}}, {"name": "StatefulPartitionedCall/Skinny/leaky_re_lu_23/LeakyRelu", "op": "_FusedConv2D", "input": ["StatefulPartitionedCall/Skinny/conv2d_32/BiasAdd", "StatefulPartitionedCall/Skinny/conv2d_33/Conv2D/ReadVariableOp", "StatefulPartitionedCall/Skinny/conv2d_33/BiasAdd/ReadVariableOp"], "device": "/device:CPU:0", "attr": {"dilations": {"list": {"i": ["1", "1", "1", "1"]}}, "epsilon": {"f": 0.0}, "use_cudnn_on_gpu": {"b": true}, "leakyrelu_alpha": {"f": 0.3}, "explicit_paddings": {"list": {}}, "num_args": {"i": "1"}, "data_format": {"s": "TkhXQw=="}, "padding": {"s": "U0FNRQ=="}, "strides": {"list": {"i": ["1", "1", "1", "1"]}}, "fused_ops": {"list": {"s": ["Qmlhc0FkZA==", "TGVha3lSZWx1"]}}, "T": {"type": "DT_FLOAT"}}}, {"name": "StatefulPartitionedCall/Skinny/leaky_re_lu_24/LeakyRelu", "op": "_FusedConv2D", "input": ["StatefulPartitionedCall/Skinny/max_pooling2d_8/MaxPool", "StatefulPartitionedCall/Skinny/conv2d_34/Conv2D/ReadVariableOp", "StatefulPartitionedCall/Skinny/conv2d_34/BiasAdd/ReadVariableOp"], "device": "/device:CPU:0", "attr": {"use_cudnn_on_gpu": {"b": true}, "T": {"type": "DT_FLOAT"}, "padding": {"s": "U0FNRQ=="}, "fused_ops": {"list": {"s": ["Qmlhc0FkZA==", "TGVha3lSZWx1"]}}, "epsilon": {"f": 0.0}, "leakyrelu_alpha": {"f": 0.3}, "explicit_paddings": {"list": {}}, "num_args": {"i": "1"}, "strides": {"list": {"i": ["1", "1", "1", "1"]}}, "data_format": {"s": "TkhXQw=="}, "dilations": {"list": {"i": ["1", "1", "1", "1"]}}}}, {"name": "StatefulPartitionedCall/Skinny/tf.concat_4/concat", "op": "ConcatV2", "input": ["StatefulPartitionedCall/Skinny/leaky_re_lu_21/LeakyRelu", "StatefulPartitionedCall/Skinny/leaky_re_lu_22/LeakyRelu", "StatefulPartitionedCall/Skinny/leaky_re_lu_23/LeakyRelu", "StatefulPartitionedCall/Skinny/leaky_re_lu_24/LeakyRelu", "StatefulPartitionedCall/Skinny/tf.concat_4/concat/axis"], "attr": {"Tidx": {"type": "DT_INT32"}, "N": {"i": "4"}, "T": {"type": "DT_FLOAT"}}}, {"name": "StatefulPartitionedCall/Skinny/max_pooling2d_9/MaxPool", "op": "MaxPool", "input": ["StatefulPartitionedCall/Skinny/tf.concat_4/concat"], "attr": {"ksize": {"list": {"i": ["1", "2", "2", "1"]}}, "explicit_paddings": {"list": {}}, "padding": {"s": "VkFMSUQ="}, "T": {"type": "DT_FLOAT"}, "data_format": {"s": "TkhXQw=="}, "strides": {"list": {"i": ["1", "2", "2", "1"]}}}}, {"name": "StatefulPartitionedCall/Skinny/leaky_re_lu_31/LeakyRelu", "op": "_FusedConv2D", "input": ["StatefulPartitionedCall/Skinny/tf.concat_4/concat", "StatefulPartitionedCall/Skinny/conv2d_43/Conv2D_weights", "StatefulPartitionedCall/Skinny/conv2d_43/Conv2D_bn_offset"], "device": "/device:CPU:0", "attr": {"num_args": {"i": "1"}, "data_format": {"s": "TkhXQw=="}, "fused_ops": {"list": {"s": ["Qmlhc0FkZA==", "TGVha3lSZWx1"]}}, "dilations": {"list": {"i": ["1", "1", "1", "1"]}}, "epsilon": {"f": 0.0}, "use_cudnn_on_gpu": {"b": true}, "padding": {"s": "U0FNRQ=="}, "strides": {"list": {"i": ["1", "1", "1", "1"]}}, "T": {"type": "DT_FLOAT"}, "leakyrelu_alpha": {"f": 0.3}, "explicit_paddings": {"list": {}}}}, {"name": "StatefulPartitionedCall/Skinny/leaky_re_lu_25/LeakyRelu", "op": "_FusedConv2D", "input": ["StatefulPartitionedCall/Skinny/max_pooling2d_9/MaxPool", "StatefulPartitionedCall/Skinny/conv2d_35/Conv2D_weights", "StatefulPartitionedCall/Skinny/conv2d_35/Conv2D_bn_offset"], "device": "/device:CPU:0", "attr": {"data_format": {"s": "TkhXQw=="}, "use_cudnn_on_gpu": {"b": true}, "dilations": {"list": {"i": ["1", "1", "1", "1"]}}, "strides": {"list": {"i": ["1", "1", "1", "1"]}}, "fused_ops": {"list": {"s": ["Qmlhc0FkZA==", "TGVha3lSZWx1"]}}, "epsilon": {"f": 0.0}, "leakyrelu_alpha": {"f": 0.3}, "explicit_paddings": {"list": {}}, "num_args": {"i": "1"}, "T": {"type": "DT_FLOAT"}, "padding": {"s": "U0FNRQ=="}}}, {"name": "StatefulPartitionedCall/Skinny/leaky_re_lu_32/LeakyRelu", "op": "_FusedConv2D", "input": ["StatefulPartitionedCall/Skinny/leaky_re_lu_31/LeakyRelu", "StatefulPartitionedCall/Skinny/conv2d_44/Conv2D_weights", "StatefulPartitionedCall/Skinny/conv2d_44/Conv2D_bn_offset"], "device": "/device:CPU:0", "attr": {"strides": {"list": {"i": ["1", "1", "1", "1"]}}, "T": {"type": "DT_FLOAT"}, "epsilon": {"f": 0.0}, "leakyrelu_alpha": {"f": 0.3}, "padding": {"s": "U0FNRQ=="}, "explicit_paddings": {"list": {}}, "num_args": {"i": "1"}, "data_format": {"s": "TkhXQw=="}, "fused_ops": {"list": {"s": ["Qmlhc0FkZA==", "TGVha3lSZWx1"]}}, "use_cudnn_on_gpu": {"b": true}, "dilations": {"list": {"i": ["1", "1", "1", "1"]}}}}, {"name": "StatefulPartitionedCall/Skinny/max_pooling2d_10/MaxPool", "op": "MaxPool", "input": ["StatefulPartitionedCall/Skinny/leaky_re_lu_25/LeakyRelu"], "attr": {"padding": {"s": "U0FNRQ=="}, "T": {"type": "DT_FLOAT"}, "explicit_paddings": {"list": {}}, "data_format": {"s": "TkhXQw=="}, "strides": {"list": {"i": ["1", "1", "1", "1"]}}, "ksize": {"list": {"i": ["1", "2", "2", "1"]}}}}, {"name": "StatefulPartitionedCall/Skinny/leaky_re_lu_26/LeakyRelu", "op": "_FusedConv2D", "input": ["StatefulPartitionedCall/Skinny/leaky_re_lu_25/LeakyRelu", "StatefulPartitionedCall/Skinny/conv2d_36/Conv2D/ReadVariableOp", "StatefulPartitionedCall/Skinny/conv2d_36/BiasAdd/ReadVariableOp"], "device": "/device:CPU:0", "attr": {"leakyrelu_alpha": {"f": 0.3}, "explicit_paddings": {"list": {}}, "num_args": {"i": "1"}, "data_format": {"s": "TkhXQw=="}, "padding": {"s": "U0FNRQ=="}, "strides": {"list": {"i": ["1", "1", "1", "1"]}}, "fused_ops": {"list": {"s": ["Qmlhc0FkZA==", "TGVha3lSZWx1"]}}, "T": {"type": "DT_FLOAT"}, "dilations": {"list": {"i": ["1", "1", "1", "1"]}}, "use_cudnn_on_gpu": {"b": true}, "epsilon": {"f": 0.0}}}, {"name": "StatefulPartitionedCall/Skinny/conv2d_37/BiasAdd", "op": "_FusedConv2D", "input": ["StatefulPartitionedCall/Skinny/leaky_re_lu_25/LeakyRelu", "StatefulPartitionedCall/Skinny/conv2d_37/Conv2D/ReadVariableOp", "StatefulPartitionedCall/Skinny/conv2d_37/BiasAdd/ReadVariableOp"], "device": "/device:CPU:0", "attr": {"strides": {"list": {"i": ["1", "1", "1", "1"]}}, "data_format": {"s": "TkhXQw=="}, "use_cudnn_on_gpu": {"b": true}, "dilations": {"list": {"i": ["1", "1", "1", "1"]}}, "T": {"type": "DT_FLOAT"}, "padding": {"s": "U0FNRQ=="}, "fused_ops": {"list": {"s": ["Qmlhc0FkZA=="]}}, "epsilon": {"f": 0.0}, "explicit_paddings": {"list": {}}, "num_args": {"i": "1"}}}, {"name": "StatefulPartitionedCall/Skinny/conv2d_39/BiasAdd", "op": "_FusedConv2D", "input": ["StatefulPartitionedCall/Skinny/leaky_re_lu_25/LeakyRelu", "StatefulPartitionedCall/Skinny/conv2d_39/Conv2D/ReadVariableOp", "StatefulPartitionedCall/Skinny/conv2d_39/BiasAdd/ReadVariableOp"], "device": "/device:CPU:0", "attr": {"fused_ops": {"list": {"s": ["Qmlhc0FkZA=="]}}, "padding": {"s": "U0FNRQ=="}, "use_cudnn_on_gpu": {"b": true}, "dilations": {"list": {"i": ["1", "1", "1", "1"]}}, "epsilon": {"f": 0.0}, "explicit_paddings": {"list": {}}, "num_args": {"i": "1"}, "strides": {"list": {"i": ["1", "1", "1", "1"]}}, "T": {"type": "DT_FLOAT"}, "data_format": {"s": "TkhXQw=="}}}, {"name": "StatefulPartitionedCall/Skinny/leaky_re_lu_33/LeakyRelu", "op": "_FusedConv2D", "input": ["StatefulPartitionedCall/Skinny/leaky_re_lu_32/LeakyRelu", "StatefulPartitionedCall/Skinny/conv2d_45/Conv2D_weights", "StatefulPartitionedCall/Skinny/conv2d_45/Conv2D_bn_offset"], "device": "/device:CPU:0", "attr": {"dilations": {"list": {"i": ["1", "1", "1", "1"]}}, "use_cudnn_on_gpu": {"b": true}, "fused_ops": {"list": {"s": ["Qmlhc0FkZA==", "TGVha3lSZWx1"]}}, "epsilon": {"f": 0.0}, "strides": {"list": {"i": ["1", "1", "1", "1"]}}, "leakyrelu_alpha": {"f": 0.3}, "explicit_paddings": {"list": {}}, "padding": {"s": "U0FNRQ=="}, "num_args": {"i": "1"}, "T": {"type": "DT_FLOAT"}, "data_format": {"s": "TkhXQw=="}}}, {"name": "StatefulPartitionedCall/Skinny/leaky_re_lu_29/LeakyRelu", "op": "_FusedConv2D", "input": ["StatefulPartitionedCall/Skinny/max_pooling2d_10/MaxPool", "StatefulPartitionedCall/Skinny/conv2d_41/Conv2D/ReadVariableOp", "StatefulPartitionedCall/Skinny/conv2d_41/BiasAdd/ReadVariableOp"], "device": "/device:CPU:0", "attr": {"use_cudnn_on_gpu": {"b": true}, "padding": {"s": "U0FNRQ=="}, "epsilon": {"f": 0.0}, "strides": {"list": {"i": ["1", "1", "1", "1"]}}, "T": {"type": "DT_FLOAT"}, "explicit_paddings": {"list": {}}, "leakyrelu_alpha": {"f": 0.3}, "num_args": {"i": "1"}, "data_format": {"s": "TkhXQw=="}, "fused_ops": {"list": {"s": ["Qmlhc0FkZA==", "TGVha3lSZWx1"]}}, "dilations": {"list": {"i": ["1", "1", "1", "1"]}}}}, {"name": "StatefulPartitionedCall/Skinny/leaky_re_lu_27/LeakyRelu", "op": "_FusedConv2D", "input": ["StatefulPartitionedCall/Skinny/conv2d_37/BiasAdd", "StatefulPartitionedCall/Skinny/conv2d_38/Conv2D/ReadVariableOp", "StatefulPartitionedCall/Skinny/conv2d_38/BiasAdd/ReadVariableOp"], "device": "/device:CPU:0", "attr": {"epsilon": {"f": 0.0}, "explicit_paddings": {"list": {}}, "leakyrelu_alpha": {"f": 0.3}, "num_args": {"i": "1"}, "T": {"type": "DT_FLOAT"}, "padding": {"s": "U0FNRQ=="}, "data_format": {"s": "TkhXQw=="}, "dilations": {"list": {"i": ["1", "1", "1", "1"]}}, "use_cudnn_on_gpu": {"b": true}, "strides": {"list": {"i": ["1", "1", "1", "1"]}}, "fused_ops": {"list": {"s": ["Qmlhc0FkZA==", "TGVha3lSZWx1"]}}}}, {"name": "StatefulPartitionedCall/Skinny/leaky_re_lu_28/LeakyRelu", "op": "_FusedConv2D", "input": ["StatefulPartitionedCall/Skinny/conv2d_39/BiasAdd", "StatefulPartitionedCall/Skinny/conv2d_40/Conv2D/ReadVariableOp", "StatefulPartitionedCall/Skinny/conv2d_40/BiasAdd/ReadVariableOp"], "device": "/device:CPU:0", "attr": {"data_format": {"s": "TkhXQw=="}, "fused_ops": {"list": {"s": ["Qmlhc0FkZA==", "TGVha3lSZWx1"]}}, "dilations": {"list": {"i": ["1", "1", "1", "1"]}}, "use_cudnn_on_gpu": {"b": true}, "strides": {"list": {"i": ["1", "1", "1", "1"]}}, "T": {"type": "DT_FLOAT"}, "padding": {"s": "U0FNRQ=="}, "epsilon": {"f": 0.0}, "explicit_paddings": {"list": {}}, "leakyrelu_alpha": {"f": 0.3}, "num_args": {"i": "1"}}}, {"name": "StatefulPartitionedCall/Skinny/tf.concat_5/concat", "op": "ConcatV2", "input": ["StatefulPartitionedCall/Skinny/leaky_re_lu_26/LeakyRelu", "StatefulPartitionedCall/Skinny/leaky_re_lu_27/LeakyRelu", "StatefulPartitionedCall/Skinny/leaky_re_lu_28/LeakyRelu", "StatefulPartitionedCall/Skinny/leaky_re_lu_29/LeakyRelu", "StatefulPartitionedCall/Skinny/tf.concat_5/concat/axis"], "attr": {"Tidx": {"type": "DT_INT32"}, "T": {"type": "DT_FLOAT"}, "N": {"i": "4"}}}, {"name": "StatefulPartitionedCall/Skinny/up_sampling2d/Shape", "op": "Shape", "input": ["StatefulPartitionedCall/Skinny/tf.concat_5/concat"], "attr": {"T": {"type": "DT_FLOAT"}, "out_type": {"type": "DT_INT32"}}}, {"name": "StatefulPartitionedCall/Skinny/up_sampling2d/strided_slice", "op": "StridedSlice", "input": ["StatefulPartitionedCall/Skinny/up_sampling2d/Shape", "StatefulPartitionedCall/Skinny/up_sampling2d/strided_slice/stack", "StatefulPartitionedCall/Skinny/up_sampling2d/strided_slice/stack_1", "StatefulPartitionedCall/Skinny/up_sampling2d/strided_slice/stack_2"], "attr": {"new_axis_mask": {"i": "0"}, "shrink_axis_mask": {"i": "0"}, "T": {"type": "DT_INT32"}, "end_mask": {"i": "0"}, "Index": {"type": "DT_INT32"}, "begin_mask": {"i": "0"}, "ellipsis_mask": {"i": "0"}}}, {"name": "StatefulPartitionedCall/Skinny/up_sampling2d/mul", "op": "Mul", "input": ["StatefulPartitionedCall/Skinny/up_sampling2d/strided_slice", "StatefulPartitionedCall/Skinny/up_sampling2d/Const"], "attr": {"T": {"type": "DT_INT32"}}}, {"name": "StatefulPartitionedCall/Skinny/up_sampling2d/resize/ResizeNearestNeighbor", "op": "ResizeNearestNeighbor", "input": ["StatefulPartitionedCall/Skinny/tf.concat_5/concat", "StatefulPartitionedCall/Skinny/up_sampling2d/mul"], "attr": {"half_pixel_centers": {"b": true}, "align_corners": {"b": false}, "T": {"type": "DT_FLOAT"}}}, {"name": "StatefulPartitionedCall/Skinny/leaky_re_lu_30/LeakyRelu", "op": "_FusedConv2D", "input": ["StatefulPartitionedCall/Skinny/up_sampling2d/resize/ResizeNearestNeighbor", "StatefulPartitionedCall/Skinny/conv2d_42/Conv2D_weights", "StatefulPartitionedCall/Skinny/conv2d_42/Conv2D_bn_offset"], "device": "/device:CPU:0", "attr": {"num_args": {"i": "1"}, "fused_ops": {"list": {"s": ["Qmlhc0FkZA==", "TGVha3lSZWx1"]}}, "data_format": {"s": "TkhXQw=="}, "dilations": {"list": {"i": ["1", "1", "1", "1"]}}, "use_cudnn_on_gpu": {"b": true}, "padding": {"s": "U0FNRQ=="}, "strides": {"list": {"i": ["1", "1", "1", "1"]}}, "epsilon": {"f": 0.0}, "T": {"type": "DT_FLOAT"}, "explicit_paddings": {"list": {}}, "leakyrelu_alpha": {"f": 0.3}}}, {"name": "StatefulPartitionedCall/Skinny/tf.concat_7/concat", "op": "ConcatV2", "input": ["StatefulPartitionedCall/Skinny/leaky_re_lu_30/LeakyRelu", "StatefulPartitionedCall/Skinny/leaky_re_lu_31/LeakyRelu", "StatefulPartitionedCall/Skinny/leaky_re_lu_32/LeakyRelu", "StatefulPartitionedCall/Skinny/leaky_re_lu_33/LeakyRelu", "StatefulPartitionedCall/Skinny/tf.concat_4/concat", "StatefulPartitionedCall/Skinny/tf.concat_7/concat/axis"], "attr": {"Tidx": {"type": "DT_INT32"}, "T": {"type": "DT_FLOAT"}, "N": {"i": "5"}}}, {"name": "StatefulPartitionedCall/Skinny/leaky_re_lu_34/LeakyRelu", "op": "_FusedConv2D", "input": ["StatefulPartitionedCall/Skinny/tf.concat_7/concat", "StatefulPartitionedCall/Skinny/conv2d_46/Conv2D/ReadVariableOp", "StatefulPartitionedCall/Skinny/conv2d_46/BiasAdd/ReadVariableOp"], "device": "/device:CPU:0", "attr": {"T": {"type": "DT_FLOAT"}, "padding": {"s": "U0FNRQ=="}, "epsilon": {"f": 0.0}, "explicit_paddings": {"list": {}}, "leakyrelu_alpha": {"f": 0.3}, "num_args": {"i": "1"}, "data_format": {"s": "TkhXQw=="}, "fused_ops": {"list": {"s": ["Qmlhc0FkZA==", "TGVha3lSZWx1"]}}, "use_cudnn_on_gpu": {"b": true}, "dilations": {"list": {"i": ["1", "1", "1", "1"]}}, "strides": {"list": {"i": ["1", "1", "1", "1"]}}}}, {"name": "StatefulPartitionedCall/Skinny/conv2d_47/BiasAdd", "op": "_FusedConv2D", "input": ["StatefulPartitionedCall/Skinny/tf.concat_7/concat", "StatefulPartitionedCall/Skinny/conv2d_47/Conv2D/ReadVariableOp", "StatefulPartitionedCall/Skinny/conv2d_47/BiasAdd/ReadVariableOp"], "device": "/device:CPU:0", "attr": {"padding": {"s": "U0FNRQ=="}, "fused_ops": {"list": {"s": ["Qmlhc0FkZA=="]}}, "use_cudnn_on_gpu": {"b": true}, "epsilon": {"f": 0.0}, "T": {"type": "DT_FLOAT"}, "explicit_paddings": {"list": {}}, "num_args": {"i": "1"}, "strides": {"list": {"i": ["1", "1", "1", "1"]}}, "data_format": {"s": "TkhXQw=="}, "dilations": {"list": {"i": ["1", "1", "1", "1"]}}}}, {"name": "StatefulPartitionedCall/Skinny/conv2d_49/BiasAdd", "op": "_FusedConv2D", "input": ["StatefulPartitionedCall/Skinny/tf.concat_7/concat", "StatefulPartitionedCall/Skinny/conv2d_49/Conv2D/ReadVariableOp", "StatefulPartitionedCall/Skinny/conv2d_49/BiasAdd/ReadVariableOp"], "device": "/device:CPU:0", "attr": {"explicit_paddings": {"list": {}}, "padding": {"s": "U0FNRQ=="}, "num_args": {"i": "1"}, "strides": {"list": {"i": ["1", "1", "1", "1"]}}, "fused_ops": {"list": {"s": ["Qmlhc0FkZA=="]}}, "data_format": {"s": "TkhXQw=="}, "dilations": {"list": {"i": ["1", "1", "1", "1"]}}, "T": {"type": "DT_FLOAT"}, "use_cudnn_on_gpu": {"b": true}, "epsilon": {"f": 0.0}}}, {"name": "StatefulPartitionedCall/Skinny/max_pooling2d_11/MaxPool", "op": "MaxPool", "input": ["StatefulPartitionedCall/Skinny/tf.concat_7/concat"], "attr": {"strides": {"list": {"i": ["1", "1", "1", "1"]}}, "data_format": {"s": "TkhXQw=="}, "ksize": {"list": {"i": ["1", "2", "2", "1"]}}, "T": {"type": "DT_FLOAT"}, "padding": {"s": "U0FNRQ=="}, "explicit_paddings": {"list": {}}}}, {"name": "StatefulPartitionedCall/Skinny/leaky_re_lu_35/LeakyRelu", "op": "_FusedConv2D", "input": ["StatefulPartitionedCall/Skinny/conv2d_47/BiasAdd", "StatefulPartitionedCall/Skinny/conv2d_48/Conv2D/ReadVariableOp", "StatefulPartitionedCall/Skinny/conv2d_48/BiasAdd/ReadVariableOp"], "device": "/device:CPU:0", "attr": {"dilations": {"list": {"i": ["1", "1", "1", "1"]}}, "use_cudnn_on_gpu": {"b": true}, "padding": {"s": "U0FNRQ=="}, "epsilon": {"f": 0.0}, "num_args": {"i": "1"}, "leakyrelu_alpha": {"f": 0.3}, "explicit_paddings": {"list": {}}, "T": {"type": "DT_FLOAT"}, "data_format": {"s": "TkhXQw=="}, "strides": {"list": {"i": ["1", "1", "1", "1"]}}, "fused_ops": {"list": {"s": ["Qmlhc0FkZA==", "TGVha3lSZWx1"]}}}}, {"name": "StatefulPartitionedCall/Skinny/leaky_re_lu_36/LeakyRelu", "op": "_FusedConv2D", "input": ["StatefulPartitionedCall/Skinny/conv2d_49/BiasAdd", "StatefulPartitionedCall/Skinny/conv2d_50/Conv2D/ReadVariableOp", "StatefulPartitionedCall/Skinny/conv2d_50/BiasAdd/ReadVariableOp"], "device": "/device:CPU:0", "attr": {"fused_ops": {"list": {"s": ["Qmlhc0FkZA==", "TGVha3lSZWx1"]}}, "use_cudnn_on_gpu": {"b": true}, "epsilon": {"f": 0.0}, "strides": {"list": {"i": ["1", "1", "1", "1"]}}, "num_args": {"i": "1"}, "data_format": {"s": "TkhXQw=="}, "leakyrelu_alpha": {"f": 0.3}, "T": {"type": "DT_FLOAT"}, "explicit_paddings": {"list": {}}, "padding": {"s": "U0FNRQ=="}, "dilations": {"list": {"i": ["1", "1", "1", "1"]}}}}, {"name": "StatefulPartitionedCall/Skinny/leaky_re_lu_37/LeakyRelu", "op": "_FusedConv2D", "input": ["StatefulPartitionedCall/Skinny/max_pooling2d_11/MaxPool", "StatefulPartitionedCall/Skinny/conv2d_51/Conv2D/ReadVariableOp", "StatefulPartitionedCall/Skinny/conv2d_51/BiasAdd/ReadVariableOp"], "device": "/device:CPU:0", "attr": {"epsilon": {"f": 0.0}, "T": {"type": "DT_FLOAT"}, "padding": {"s": "U0FNRQ=="}, "strides": {"list": {"i": ["1", "1", "1", "1"]}}, "num_args": {"i": "1"}, "data_format": {"s": "TkhXQw=="}, "leakyrelu_alpha": {"f": 0.3}, "explicit_paddings": {"list": {}}, "fused_ops": {"list": {"s": ["Qmlhc0FkZA==", "TGVha3lSZWx1"]}}, "dilations": {"list": {"i": ["1", "1", "1", "1"]}}, "use_cudnn_on_gpu": {"b": true}}}, {"name": "StatefulPartitionedCall/Skinny/tf.concat_8/concat", "op": "ConcatV2", "input": ["StatefulPartitionedCall/Skinny/leaky_re_lu_34/LeakyRelu", "StatefulPartitionedCall/Skinny/leaky_re_lu_35/LeakyRelu", "StatefulPartitionedCall/Skinny/leaky_re_lu_36/LeakyRelu", "StatefulPartitionedCall/Skinny/leaky_re_lu_37/LeakyRelu", "StatefulPartitionedCall/Skinny/tf.concat_8/concat/axis"], "attr": {"N": {"i": "4"}, "Tidx": {"type": "DT_INT32"}, "T": {"type": "DT_FLOAT"}}}, {"name": "StatefulPartitionedCall/Skinny/up_sampling2d_1/Shape", "op": "Shape", "input": ["StatefulPartitionedCall/Skinny/tf.concat_8/concat"], "attr": {"T": {"type": "DT_FLOAT"}, "out_type": {"type": "DT_INT32"}}}, {"name": "StatefulPartitionedCall/Skinny/up_sampling2d_1/strided_slice", "op": "StridedSlice", "input": ["StatefulPartitionedCall/Skinny/up_sampling2d_1/Shape", "StatefulPartitionedCall/Skinny/up_sampling2d_1/strided_slice/stack", "StatefulPartitionedCall/Skinny/up_sampling2d_1/strided_slice/stack_1", "StatefulPartitionedCall/Skinny/up_sampling2d_1/strided_slice/stack_2"], "attr": {"end_mask": {"i": "0"}, "shrink_axis_mask": {"i": "0"}, "ellipsis_mask": {"i": "0"}, "T": {"type": "DT_INT32"}, "begin_mask": {"i": "0"}, "new_axis_mask": {"i": "0"}, "Index": {"type": "DT_INT32"}}}, {"name": "StatefulPartitionedCall/Skinny/up_sampling2d_1/mul", "op": "Mul", "input": ["StatefulPartitionedCall/Skinny/up_sampling2d_1/strided_slice", "StatefulPartitionedCall/Skinny/up_sampling2d_1/Const"], "attr": {"T": {"type": "DT_INT32"}}}, {"name": "StatefulPartitionedCall/Skinny/up_sampling2d_1/resize/ResizeNearestNeighbor", "op": "ResizeNearestNeighbor", "input": ["StatefulPartitionedCall/Skinny/tf.concat_8/concat", "StatefulPartitionedCall/Skinny/up_sampling2d_1/mul"], "attr": {"half_pixel_centers": {"b": true}, "align_corners": {"b": false}, "T": {"type": "DT_FLOAT"}}}, {"name": "StatefulPartitionedCall/Skinny/leaky_re_lu_38/LeakyRelu", "op": "_FusedConv2D", "input": ["StatefulPartitionedCall/Skinny/up_sampling2d_1/resize/ResizeNearestNeighbor", "StatefulPartitionedCall/Skinny/conv2d_52/Conv2D_weights", "StatefulPartitionedCall/Skinny/conv2d_52/Conv2D_bn_offset"], "device": "/device:CPU:0", "attr": {"epsilon": {"f": 0.0}, "num_args": {"i": "1"}, "leakyrelu_alpha": {"f": 0.3}, "explicit_paddings": {"list": {}}, "T": {"type": "DT_FLOAT"}, "data_format": {"s": "TkhXQw=="}, "strides": {"list": {"i": ["1", "1", "1", "1"]}}, "fused_ops": {"list": {"s": ["Qmlhc0FkZA==", "TGVha3lSZWx1"]}}, "padding": {"s": "U0FNRQ=="}, "use_cudnn_on_gpu": {"b": true}, "dilations": {"list": {"i": ["1", "1", "1", "1"]}}}}, {"name": "StatefulPartitionedCall/Skinny/tf.concat_10/concat", "op": "ConcatV2", "input": ["StatefulPartitionedCall/Skinny/leaky_re_lu_38/LeakyRelu", "StatefulPartitionedCall/Skinny/leaky_re_lu_39/LeakyRelu", "StatefulPartitionedCall/Skinny/leaky_re_lu_40/LeakyRelu", "StatefulPartitionedCall/Skinny/leaky_re_lu_41/LeakyRelu", "StatefulPartitionedCall/Skinny/tf.concat_3/concat", "StatefulPartitionedCall/Skinny/tf.concat_10/concat/axis"], "attr": {"N": {"i": "5"}, "T": {"type": "DT_FLOAT"}, "Tidx": {"type": "DT_INT32"}}}, {"name": "StatefulPartitionedCall/Skinny/leaky_re_lu_42/LeakyRelu", "op": "_FusedConv2D", "input": ["StatefulPartitionedCall/Skinny/tf.concat_10/concat", "StatefulPartitionedCall/Skinny/conv2d_56/Conv2D/ReadVariableOp", "StatefulPartitionedCall/Skinny/conv2d_56/BiasAdd/ReadVariableOp"], "device": "/device:CPU:0", "attr": {"leakyrelu_alpha": {"f": 0.3}, "explicit_paddings": {"list": {}}, "fused_ops": {"list": {"s": ["Qmlhc0FkZA==", "TGVha3lSZWx1"]}}, "dilations": {"list": {"i": ["1", "1", "1", "1"]}}, "use_cudnn_on_gpu": {"b": true}, "T": {"type": "DT_FLOAT"}, "padding": {"s": "U0FNRQ=="}, "epsilon": {"f": 0.0}, "strides": {"list": {"i": ["1", "1", "1", "1"]}}, "num_args": {"i": "1"}, "data_format": {"s": "TkhXQw=="}}}, {"name": "StatefulPartitionedCall/Skinny/conv2d_57/BiasAdd", "op": "_FusedConv2D", "input": ["StatefulPartitionedCall/Skinny/tf.concat_10/concat", "StatefulPartitionedCall/Skinny/conv2d_57/Conv2D/ReadVariableOp", "StatefulPartitionedCall/Skinny/conv2d_57/BiasAdd/ReadVariableOp"], "device": "/device:CPU:0", "attr": {"padding": {"s": "U0FNRQ=="}, "use_cudnn_on_gpu": {"b": true}, "dilations": {"list": {"i": ["1", "1", "1", "1"]}}, "fused_ops": {"list": {"s": ["Qmlhc0FkZA=="]}}, "strides": {"list": {"i": ["1", "1", "1", "1"]}}, "epsilon": {"f": 0.0}, "num_args": {"i": "1"}, "T": {"type": "DT_FLOAT"}, "explicit_paddings": {"list": {}}, "data_format": {"s": "TkhXQw=="}}}, {"name": "StatefulPartitionedCall/Skinny/conv2d_59/BiasAdd", "op": "_FusedConv2D", "input": ["StatefulPartitionedCall/Skinny/tf.concat_10/concat", "StatefulPartitionedCall/Skinny/conv2d_59/Conv2D/ReadVariableOp", "StatefulPartitionedCall/Skinny/conv2d_59/BiasAdd/ReadVariableOp"], "device": "/device:CPU:0", "attr": {"strides": {"list": {"i": ["1", "1", "1", "1"]}}, "padding": {"s": "U0FNRQ=="}, "epsilon": {"f": 0.0}, "num_args": {"i": "1"}, "explicit_paddings": {"list": {}}, "data_format": {"s": "TkhXQw=="}, "fused_ops": {"list": {"s": ["Qmlhc0FkZA=="]}}, "dilations": {"list": {"i": ["1", "1", "1", "1"]}}, "use_cudnn_on_gpu": {"b": true}, "T": {"type": "DT_FLOAT"}}}, {"name": "StatefulPartitionedCall/Skinny/max_pooling2d_12/MaxPool", "op": "MaxPool", "input": ["StatefulPartitionedCall/Skinny/tf.concat_10/concat"], "attr": {"T": {"type": "DT_FLOAT"}, "padding": {"s": "U0FNRQ=="}, "data_format": {"s": "TkhXQw=="}, "explicit_paddings": {"list": {}}, "strides": {"list": {"i": ["1", "1", "1", "1"]}}, "ksize": {"list": {"i": ["1", "2", "2", "1"]}}}}, {"name": "StatefulPartitionedCall/Skinny/leaky_re_lu_43/LeakyRelu", "op": "_FusedConv2D", "input": ["StatefulPartitionedCall/Skinny/conv2d_57/BiasAdd", "StatefulPartitionedCall/Skinny/conv2d_58/Conv2D/ReadVariableOp", "StatefulPartitionedCall/Skinny/conv2d_58/BiasAdd/ReadVariableOp"], "device": "/device:CPU:0", "attr": {"explicit_paddings": {"list": {}}, "num_args": {"i": "1"}, "data_format": {"s": "TkhXQw=="}, "leakyrelu_alpha": {"f": 0.3}, "fused_ops": {"list": {"s": ["Qmlhc0FkZA==", "TGVha3lSZWx1"]}}, "dilations": {"list": {"i": ["1", "1", "1", "1"]}}, "padding": {"s": "U0FNRQ=="}, "T": {"type": "DT_FLOAT"}, "strides": {"list": {"i": ["1", "1", "1", "1"]}}, "use_cudnn_on_gpu": {"b": true}, "epsilon": {"f": 0.0}}}, {"name": "StatefulPartitionedCall/Skinny/leaky_re_lu_44/LeakyRelu", "op": "_FusedConv2D", "input": ["StatefulPartitionedCall/Skinny/conv2d_59/BiasAdd", "StatefulPartitionedCall/Skinny/conv2d_60/Conv2D/ReadVariableOp", "StatefulPartitionedCall/Skinny/conv2d_60/BiasAdd/ReadVariableOp"], "device": "/device:CPU:0", "attr": {"leakyrelu_alpha": {"f": 0.3}, "strides": {"list": {"i": ["1", "1", "1", "1"]}}, "data_format": {"s": "TkhXQw=="}, "use_cudnn_on_gpu": {"b": true}, "dilations": {"list": {"i": ["1", "1", "1", "1"]}}, "T": {"type": "DT_FLOAT"}, "fused_ops": {"list": {"s": ["Qmlhc0FkZA==", "TGVha3lSZWx1"]}}, "padding": {"s": "U0FNRQ=="}, "epsilon": {"f": 0.0}, "num_args": {"i": "1"}, "explicit_paddings": {"list": {}}}}, {"name": "StatefulPartitionedCall/Skinny/leaky_re_lu_45/LeakyRelu", "op": "_FusedConv2D", "input": ["StatefulPartitionedCall/Skinny/max_pooling2d_12/MaxPool", "StatefulPartitionedCall/Skinny/conv2d_61/Conv2D/ReadVariableOp", "StatefulPartitionedCall/Skinny/conv2d_61/BiasAdd/ReadVariableOp"], "device": "/device:CPU:0", "attr": {"use_cudnn_on_gpu": {"b": true}, "dilations": {"list": {"i": ["1", "1", "1", "1"]}}, "padding": {"s": "U0FNRQ=="}, "epsilon": {"f": 0.0}, "explicit_paddings": {"list": {}}, "num_args": {"i": "1"}, "leakyrelu_alpha": {"f": 0.3}, "T": {"type": "DT_FLOAT"}, "strides": {"list": {"i": ["1", "1", "1", "1"]}}, "data_format": {"s": "TkhXQw=="}, "fused_ops": {"list": {"s": ["Qmlhc0FkZA==", "TGVha3lSZWx1"]}}}}, {"name": "StatefulPartitionedCall/Skinny/tf.concat_11/concat", "op": "ConcatV2", "input": ["StatefulPartitionedCall/Skinny/leaky_re_lu_42/LeakyRelu", "StatefulPartitionedCall/Skinny/leaky_re_lu_43/LeakyRelu", "StatefulPartitionedCall/Skinny/leaky_re_lu_44/LeakyRelu", "StatefulPartitionedCall/Skinny/leaky_re_lu_45/LeakyRelu", "StatefulPartitionedCall/Skinny/tf.concat_11/concat/axis"], "attr": {"N": {"i": "4"}, "Tidx": {"type": "DT_INT32"}, "T": {"type": "DT_FLOAT"}}}, {"name": "StatefulPartitionedCall/Skinny/up_sampling2d_2/Shape", "op": "Shape", "input": ["StatefulPartitionedCall/Skinny/tf.concat_11/concat"], "attr": {"out_type": {"type": "DT_INT32"}, "T": {"type": "DT_FLOAT"}}}, {"name": "StatefulPartitionedCall/Skinny/up_sampling2d_2/strided_slice", "op": "StridedSlice", "input": ["StatefulPartitionedCall/Skinny/up_sampling2d_2/Shape", "StatefulPartitionedCall/Skinny/up_sampling2d_2/strided_slice/stack", "StatefulPartitionedCall/Skinny/up_sampling2d_2/strided_slice/stack_1", "StatefulPartitionedCall/Skinny/up_sampling2d_2/strided_slice/stack_2"], "attr": {"end_mask": {"i": "0"}, "shrink_axis_mask": {"i": "0"}, "ellipsis_mask": {"i": "0"}, "T": {"type": "DT_INT32"}, "begin_mask": {"i": "0"}, "new_axis_mask": {"i": "0"}, "Index": {"type": "DT_INT32"}}}, {"name": "StatefulPartitionedCall/Skinny/up_sampling2d_2/mul", "op": "Mul", "input": ["StatefulPartitionedCall/Skinny/up_sampling2d_2/strided_slice", "StatefulPartitionedCall/Skinny/up_sampling2d_2/Const"], "attr": {"T": {"type": "DT_INT32"}}}, {"name": "StatefulPartitionedCall/Skinny/up_sampling2d_2/resize/ResizeNearestNeighbor", "op": "ResizeNearestNeighbor", "input": ["StatefulPartitionedCall/Skinny/tf.concat_11/concat", "StatefulPartitionedCall/Skinny/up_sampling2d_2/mul"], "attr": {"T": {"type": "DT_FLOAT"}, "align_corners": {"b": false}, "half_pixel_centers": {"b": true}}}, {"name": "StatefulPartitionedCall/Skinny/leaky_re_lu_46/LeakyRelu", "op": "_FusedConv2D", "input": ["StatefulPartitionedCall/Skinny/up_sampling2d_2/resize/ResizeNearestNeighbor", "StatefulPartitionedCall/Skinny/conv2d_62/Conv2D_weights", "StatefulPartitionedCall/Skinny/conv2d_62/Conv2D_bn_offset"], "device": "/device:CPU:0", "attr": {"use_cudnn_on_gpu": {"b": true}, "epsilon": {"f": 0.0}, "explicit_paddings": {"list": {}}, "leakyrelu_alpha": {"f": 0.3}, "fused_ops": {"list": {"s": ["Qmlhc0FkZA==", "TGVha3lSZWx1"]}}, "num_args": {"i": "1"}, "data_format": {"s": "TkhXQw=="}, "padding": {"s": "U0FNRQ=="}, "dilations": {"list": {"i": ["1", "1", "1", "1"]}}, "T": {"type": "DT_FLOAT"}, "strides": {"list": {"i": ["1", "1", "1", "1"]}}}}, {"name": "StatefulPartitionedCall/Skinny/tf.concat_13/concat", "op": "ConcatV2", "input": ["StatefulPartitionedCall/Skinny/leaky_re_lu_46/LeakyRelu", "StatefulPartitionedCall/Skinny/leaky_re_lu_47/LeakyRelu", "StatefulPartitionedCall/Skinny/leaky_re_lu_48/LeakyRelu", "StatefulPartitionedCall/Skinny/leaky_re_lu_49/LeakyRelu", "StatefulPartitionedCall/Skinny/tf.concat_2/concat", "StatefulPartitionedCall/Skinny/tf.concat_13/concat/axis"], "attr": {"N": {"i": "5"}, "T": {"type": "DT_FLOAT"}, "Tidx": {"type": "DT_INT32"}}}, {"name": "StatefulPartitionedCall/Skinny/max_pooling2d_13/MaxPool", "op": "MaxPool", "input": ["StatefulPartitionedCall/Skinny/tf.concat_13/concat"], "attr": {"ksize": {"list": {"i": ["1", "2", "2", "1"]}}, "explicit_paddings": {"list": {}}, "T": {"type": "DT_FLOAT"}, "strides": {"list": {"i": ["1", "1", "1", "1"]}}, "data_format": {"s": "TkhXQw=="}, "padding": {"s": "U0FNRQ=="}}}, {"name": "StatefulPartitionedCall/Skinny/leaky_re_lu_50/LeakyRelu", "op": "_FusedConv2D", "input": ["StatefulPartitionedCall/Skinny/tf.concat_13/concat", "StatefulPartitionedCall/Skinny/conv2d_66/Conv2D/ReadVariableOp", "StatefulPartitionedCall/Skinny/conv2d_66/BiasAdd/ReadVariableOp"], "device": "/device:CPU:0", "attr": {"epsilon": {"f": 0.0}, "strides": {"list": {"i": ["1", "1", "1", "1"]}}, "explicit_paddings": {"list": {}}, "num_args": {"i": "1"}, "T": {"type": "DT_FLOAT"}, "data_format": {"s": "TkhXQw=="}, "leakyrelu_alpha": {"f": 0.3}, "padding": {"s": "U0FNRQ=="}, "dilations": {"list": {"i": ["1", "1", "1", "1"]}}, "fused_ops": {"list": {"s": ["Qmlhc0FkZA==", "TGVha3lSZWx1"]}}, "use_cudnn_on_gpu": {"b": true}}}, {"name": "StatefulPartitionedCall/Skinny/conv2d_67/BiasAdd", "op": "_FusedConv2D", "input": ["StatefulPartitionedCall/Skinny/tf.concat_13/concat", "StatefulPartitionedCall/Skinny/conv2d_67/Conv2D/ReadVariableOp", "StatefulPartitionedCall/Skinny/conv2d_67/BiasAdd/ReadVariableOp"], "device": "/device:CPU:0", "attr": {"num_args": {"i": "1"}, "data_format": {"s": "TkhXQw=="}, "fused_ops": {"list": {"s": ["Qmlhc0FkZA=="]}}, "dilations": {"list": {"i": ["1", "1", "1", "1"]}}, "use_cudnn_on_gpu": {"b": true}, "T": {"type": "DT_FLOAT"}, "padding": {"s": "U0FNRQ=="}, "epsilon": {"f": 0.0}, "strides": {"list": {"i": ["1", "1", "1", "1"]}}, "explicit_paddings": {"list": {}}}}, {"name": "StatefulPartitionedCall/Skinny/conv2d_69/BiasAdd", "op": "_FusedConv2D", "input": ["StatefulPartitionedCall/Skinny/tf.concat_13/concat", "StatefulPartitionedCall/Skinny/conv2d_69/Conv2D/ReadVariableOp", "StatefulPartitionedCall/Skinny/conv2d_69/BiasAdd/ReadVariableOp"], "device": "/device:CPU:0", "attr": {"padding": {"s": "U0FNRQ=="}, "use_cudnn_on_gpu": {"b": true}, "dilations": {"list": {"i": ["1", "1", "1", "1"]}}, "fused_ops": {"list": {"s": ["Qmlhc0FkZA=="]}}, "strides": {"list": {"i": ["1", "1", "1", "1"]}}, "epsilon": {"f": 0.0}, "explicit_paddings": {"list": {}}, "num_args": {"i": "1"}, "T": {"type": "DT_FLOAT"}, "data_format": {"s": "TkhXQw=="}}}, {"name": "StatefulPartitionedCall/Skinny/leaky_re_lu_53/LeakyRelu", "op": "_FusedConv2D", "input": ["StatefulPartitionedCall/Skinny/max_pooling2d_13/MaxPool", "StatefulPartitionedCall/Skinny/conv2d_71/Conv2D/ReadVariableOp", "StatefulPartitionedCall/Skinny/conv2d_71/BiasAdd/ReadVariableOp"], "device": "/device:CPU:0", "attr": {"T": {"type": "DT_FLOAT"}, "strides": {"list": {"i": ["1", "1", "1", "1"]}}, "padding": {"s": "U0FNRQ=="}, "epsilon": {"f": 0.0}, "explicit_paddings": {"list": {}}, "num_args": {"i": "1"}, "leakyrelu_alpha": {"f": 0.3}, "fused_ops": {"list": {"s": ["Qmlhc0FkZA==", "TGVha3lSZWx1"]}}, "data_format": {"s": "TkhXQw=="}, "use_cudnn_on_gpu": {"b": true}, "dilations": {"list": {"i": ["1", "1", "1", "1"]}}}}, {"name": "StatefulPartitionedCall/Skinny/leaky_re_lu_51/LeakyRelu", "op": "_FusedConv2D", "input": ["StatefulPartitionedCall/Skinny/conv2d_67/BiasAdd", "StatefulPartitionedCall/Skinny/conv2d_68/Conv2D/ReadVariableOp", "StatefulPartitionedCall/Skinny/conv2d_68/BiasAdd/ReadVariableOp"], "device": "/device:CPU:0", "attr": {"use_cudnn_on_gpu": {"b": true}, "num_args": {"i": "1"}, "fused_ops": {"list": {"s": ["Qmlhc0FkZA==", "TGVha3lSZWx1"]}}, "data_format": {"s": "TkhXQw=="}, "padding": {"s": "U0FNRQ=="}, "dilations": {"list": {"i": ["1", "1", "1", "1"]}}, "strides": {"list": {"i": ["1", "1", "1", "1"]}}, "T": {"type": "DT_FLOAT"}, "explicit_paddings": {"list": {}}, "leakyrelu_alpha": {"f": 0.3}, "epsilon": {"f": 0.0}}}, {"name": "StatefulPartitionedCall/Skinny/leaky_re_lu_52/LeakyRelu", "op": "_FusedConv2D", "input": ["StatefulPartitionedCall/Skinny/conv2d_69/BiasAdd", "StatefulPartitionedCall/Skinny/conv2d_70/Conv2D/ReadVariableOp", "StatefulPartitionedCall/Skinny/conv2d_70/BiasAdd/ReadVariableOp"], "device": "/device:CPU:0", "attr": {"explicit_paddings": {"list": {}}, "data_format": {"s": "TkhXQw=="}, "padding": {"s": "U0FNRQ=="}, "fused_ops": {"list": {"s": ["Qmlhc0FkZA==", "TGVha3lSZWx1"]}}, "epsilon": {"f": 0.0}, "use_cudnn_on_gpu": {"b": true}, "dilations": {"list": {"i": ["1", "1", "1", "1"]}}, "num_args": {"i": "1"}, "T": {"type": "DT_FLOAT"}, "leakyrelu_alpha": {"f": 0.3}, "strides": {"list": {"i": ["1", "1", "1", "1"]}}}}, {"name": "StatefulPartitionedCall/Skinny/tf.concat_14/concat", "op": "ConcatV2", "input": ["StatefulPartitionedCall/Skinny/leaky_re_lu_50/LeakyRelu", "StatefulPartitionedCall/Skinny/leaky_re_lu_51/LeakyRelu", "StatefulPartitionedCall/Skinny/leaky_re_lu_52/LeakyRelu", "StatefulPartitionedCall/Skinny/leaky_re_lu_53/LeakyRelu", "StatefulPartitionedCall/Skinny/tf.concat_14/concat/axis"], "attr": {"Tidx": {"type": "DT_INT32"}, "T": {"type": "DT_FLOAT"}, "N": {"i": "4"}}}, {"name": "StatefulPartitionedCall/Skinny/up_sampling2d_3/Shape", "op": "Shape", "input": ["StatefulPartitionedCall/Skinny/tf.concat_14/concat"], "attr": {"T": {"type": "DT_FLOAT"}, "out_type": {"type": "DT_INT32"}}}, {"name": "StatefulPartitionedCall/Skinny/up_sampling2d_3/strided_slice", "op": "StridedSlice", "input": ["StatefulPartitionedCall/Skinny/up_sampling2d_3/Shape", "StatefulPartitionedCall/Skinny/up_sampling2d_3/strided_slice/stack", "StatefulPartitionedCall/Skinny/up_sampling2d_3/strided_slice/stack_1", "StatefulPartitionedCall/Skinny/up_sampling2d_3/strided_slice/stack_2"], "attr": {"T": {"type": "DT_INT32"}, "new_axis_mask": {"i": "0"}, "ellipsis_mask": {"i": "0"}, "begin_mask": {"i": "0"}, "shrink_axis_mask": {"i": "0"}, "end_mask": {"i": "0"}, "Index": {"type": "DT_INT32"}}}, {"name": "StatefulPartitionedCall/Skinny/up_sampling2d_3/mul", "op": "Mul", "input": ["StatefulPartitionedCall/Skinny/up_sampling2d_3/strided_slice", "StatefulPartitionedCall/Skinny/up_sampling2d_3/Const"], "attr": {"T": {"type": "DT_INT32"}}}, {"name": "StatefulPartitionedCall/Skinny/up_sampling2d_3/resize/ResizeNearestNeighbor", "op": "ResizeNearestNeighbor", "input": ["StatefulPartitionedCall/Skinny/tf.concat_14/concat", "StatefulPartitionedCall/Skinny/up_sampling2d_3/mul"], "attr": {"T": {"type": "DT_FLOAT"}, "half_pixel_centers": {"b": true}, "align_corners": {"b": false}}}, {"name": "StatefulPartitionedCall/Skinny/leaky_re_lu_54/LeakyRelu", "op": "_FusedConv2D", "input": ["StatefulPartitionedCall/Skinny/up_sampling2d_3/resize/ResizeNearestNeighbor", "StatefulPartitionedCall/Skinny/conv2d_72/Conv2D_weights", "StatefulPartitionedCall/Skinny/conv2d_72/Conv2D_bn_offset"], "device": "/device:CPU:0", "attr": {"explicit_paddings": {"list": {}}, "padding": {"s": "U0FNRQ=="}, "data_format": {"s": "TkhXQw=="}, "leakyrelu_alpha": {"f": 0.3}, "T": {"type": "DT_FLOAT"}, "num_args": {"i": "1"}, "dilations": {"list": {"i": ["1", "1", "1", "1"]}}, "use_cudnn_on_gpu": {"b": true}, "strides": {"list": {"i": ["1", "1", "1", "1"]}}, "fused_ops": {"list": {"s": ["Qmlhc0FkZA==", "TGVha3lSZWx1"]}}, "epsilon": {"f": 0.0}}}, {"name": "StatefulPartitionedCall/Skinny/tf.concat_16/concat", "op": "ConcatV2", "input": ["StatefulPartitionedCall/Skinny/leaky_re_lu_54/LeakyRelu", "StatefulPartitionedCall/Skinny/leaky_re_lu_55/LeakyRelu", "StatefulPartitionedCall/Skinny/leaky_re_lu_56/LeakyRelu", "StatefulPartitionedCall/Skinny/leaky_re_lu_57/LeakyRelu", "StatefulPartitionedCall/Skinny/tf.concat_1/concat", "StatefulPartitionedCall/Skinny/tf.concat_16/concat/axis"], "attr": {"Tidx": {"type": "DT_INT32"}, "N": {"i": "5"}, "T": {"type": "DT_FLOAT"}}}, {"name": "StatefulPartitionedCall/Skinny/leaky_re_lu_58/LeakyRelu", "op": "_FusedConv2D", "input": ["StatefulPartitionedCall/Skinny/tf.concat_16/concat", "StatefulPartitionedCall/Skinny/conv2d_76/Conv2D/ReadVariableOp", "StatefulPartitionedCall/Skinny/conv2d_76/BiasAdd/ReadVariableOp"], "device": "/device:CPU:0", "attr": {"padding": {"s": "U0FNRQ=="}, "fused_ops": {"list": {"s": ["Qmlhc0FkZA==", "TGVha3lSZWx1"]}}, "epsilon": {"f": 0.0}, "explicit_paddings": {"list": {}}, "leakyrelu_alpha": {"f": 0.3}, "num_args": {"i": "1"}, "strides": {"list": {"i": ["1", "1", "1", "1"]}}, "data_format": {"s": "TkhXQw=="}, "dilations": {"list": {"i": ["1", "1", "1", "1"]}}, "use_cudnn_on_gpu": {"b": true}, "T": {"type": "DT_FLOAT"}}}, {"name": "StatefulPartitionedCall/Skinny/conv2d_77/BiasAdd", "op": "_FusedConv2D", "input": ["StatefulPartitionedCall/Skinny/tf.concat_16/concat", "StatefulPartitionedCall/Skinny/conv2d_77/Conv2D/ReadVariableOp", "StatefulPartitionedCall/Skinny/conv2d_77/BiasAdd/ReadVariableOp"], "device": "/device:CPU:0", "attr": {"fused_ops": {"list": {"s": ["Qmlhc0FkZA=="]}}, "use_cudnn_on_gpu": {"b": true}, "epsilon": {"f": 0.0}, "explicit_paddings": {"list": {}}, "data_format": {"s": "TkhXQw=="}, "padding": {"s": "U0FNRQ=="}, "num_args": {"i": "1"}, "strides": {"list": {"i": ["1", "1", "1", "1"]}}, "dilations": {"list": {"i": ["1", "1", "1", "1"]}}, "T": {"type": "DT_FLOAT"}}}, {"name": "StatefulPartitionedCall/Skinny/conv2d_79/BiasAdd", "op": "_FusedConv2D", "input": ["StatefulPartitionedCall/Skinny/tf.concat_16/concat", "StatefulPartitionedCall/Skinny/conv2d_79/Conv2D/ReadVariableOp", "StatefulPartitionedCall/Skinny/conv2d_79/BiasAdd/ReadVariableOp"], "device": "/device:CPU:0", "attr": {"data_format": {"s": "TkhXQw=="}, "strides": {"list": {"i": ["1", "1", "1", "1"]}}, "num_args": {"i": "1"}, "dilations": {"list": {"i": ["1", "1", "1", "1"]}}, "padding": {"s": "U0FNRQ=="}, "use_cudnn_on_gpu": {"b": true}, "T": {"type": "DT_FLOAT"}, "fused_ops": {"list": {"s": ["Qmlhc0FkZA=="]}}, "epsilon": {"f": 0.0}, "explicit_paddings": {"list": {}}}}, {"name": "StatefulPartitionedCall/Skinny/max_pooling2d_14/MaxPool", "op": "MaxPool", "input": ["StatefulPartitionedCall/Skinny/tf.concat_16/concat"], "attr": {"data_format": {"s": "TkhXQw=="}, "ksize": {"list": {"i": ["1", "2", "2", "1"]}}, "strides": {"list": {"i": ["1", "1", "1", "1"]}}, "T": {"type": "DT_FLOAT"}, "padding": {"s": "U0FNRQ=="}, "explicit_paddings": {"list": {}}}}, {"name": "StatefulPartitionedCall/Skinny/leaky_re_lu_59/LeakyRelu", "op": "_FusedConv2D", "input": ["StatefulPartitionedCall/Skinny/conv2d_77/BiasAdd", "StatefulPartitionedCall/Skinny/conv2d_78/Conv2D/ReadVariableOp", "StatefulPartitionedCall/Skinny/conv2d_78/BiasAdd/ReadVariableOp"], "device": "/device:CPU:0", "attr": {"explicit_paddings": {"list": {}}, "fused_ops": {"list": {"s": ["Qmlhc0FkZA==", "TGVha3lSZWx1"]}}, "epsilon": {"f": 0.0}, "leakyrelu_alpha": {"f": 0.3}, "T": {"type": "DT_FLOAT"}, "num_args": {"i": "1"}, "padding": {"s": "U0FNRQ=="}, "data_format": {"s": "TkhXQw=="}, "dilations": {"list": {"i": ["1", "1", "1", "1"]}}, "use_cudnn_on_gpu": {"b": true}, "strides": {"list": {"i": ["1", "1", "1", "1"]}}}}, {"name": "StatefulPartitionedCall/Skinny/leaky_re_lu_60/LeakyRelu", "op": "_FusedConv2D", "input": ["StatefulPartitionedCall/Skinny/conv2d_79/BiasAdd", "StatefulPartitionedCall/Skinny/conv2d_80/Conv2D/ReadVariableOp", "StatefulPartitionedCall/Skinny/conv2d_80/BiasAdd/ReadVariableOp"], "device": "/device:CPU:0", "attr": {"explicit_paddings": {"list": {}}, "T": {"type": "DT_FLOAT"}, "data_format": {"s": "TkhXQw=="}, "num_args": {"i": "1"}, "dilations": {"list": {"i": ["1", "1", "1", "1"]}}, "leakyrelu_alpha": {"f": 0.3}, "fused_ops": {"list": {"s": ["Qmlhc0FkZA==", "TGVha3lSZWx1"]}}, "epsilon": {"f": 0.0}, "use_cudnn_on_gpu": {"b": true}, "strides": {"list": {"i": ["1", "1", "1", "1"]}}, "padding": {"s": "U0FNRQ=="}}}, {"name": "StatefulPartitionedCall/Skinny/leaky_re_lu_61/LeakyRelu", "op": "_FusedConv2D", "input": ["StatefulPartitionedCall/Skinny/max_pooling2d_14/MaxPool", "StatefulPartitionedCall/Skinny/conv2d_81/Conv2D/ReadVariableOp", "StatefulPartitionedCall/Skinny/conv2d_81/BiasAdd/ReadVariableOp"], "device": "/device:CPU:0", "attr": {"fused_ops": {"list": {"s": ["Qmlhc0FkZA==", "TGVha3lSZWx1"]}}, "strides": {"list": {"i": ["1", "1", "1", "1"]}}, "explicit_paddings": {"list": {}}, "data_format": {"s": "TkhXQw=="}, "padding": {"s": "U0FNRQ=="}, "num_args": {"i": "1"}, "dilations": {"list": {"i": ["1", "1", "1", "1"]}}, "leakyrelu_alpha": {"f": 0.3}, "epsilon": {"f": 0.0}, "use_cudnn_on_gpu": {"b": true}, "T": {"type": "DT_FLOAT"}}}, {"name": "StatefulPartitionedCall/Skinny/tf.concat_17/concat", "op": "ConcatV2", "input": ["StatefulPartitionedCall/Skinny/leaky_re_lu_58/LeakyRelu", "StatefulPartitionedCall/Skinny/leaky_re_lu_59/LeakyRelu", "StatefulPartitionedCall/Skinny/leaky_re_lu_60/LeakyRelu", "StatefulPartitionedCall/Skinny/leaky_re_lu_61/LeakyRelu", "StatefulPartitionedCall/Skinny/tf.concat_17/concat/axis"], "attr": {"Tidx": {"type": "DT_INT32"}, "N": {"i": "4"}, "T": {"type": "DT_FLOAT"}}}, {"name": "StatefulPartitionedCall/Skinny/up_sampling2d_4/Shape", "op": "Shape", "input": ["StatefulPartitionedCall/Skinny/tf.concat_17/concat"], "attr": {"out_type": {"type": "DT_INT32"}, "T": {"type": "DT_FLOAT"}}}, {"name": "StatefulPartitionedCall/Skinny/up_sampling2d_4/strided_slice", "op": "StridedSlice", "input": ["StatefulPartitionedCall/Skinny/up_sampling2d_4/Shape", "StatefulPartitionedCall/Skinny/up_sampling2d_4/strided_slice/stack", "StatefulPartitionedCall/Skinny/up_sampling2d_4/strided_slice/stack_1", "StatefulPartitionedCall/Skinny/up_sampling2d_4/strided_slice/stack_2"], "attr": {"new_axis_mask": {"i": "0"}, "begin_mask": {"i": "0"}, "ellipsis_mask": {"i": "0"}, "T": {"type": "DT_INT32"}, "shrink_axis_mask": {"i": "0"}, "end_mask": {"i": "0"}, "Index": {"type": "DT_INT32"}}}, {"name": "StatefulPartitionedCall/Skinny/up_sampling2d_4/mul", "op": "Mul", "input": ["StatefulPartitionedCall/Skinny/up_sampling2d_4/strided_slice", "StatefulPartitionedCall/Skinny/up_sampling2d_4/Const"], "attr": {"T": {"type": "DT_INT32"}}}, {"name": "StatefulPartitionedCall/Skinny/up_sampling2d_4/resize/ResizeNearestNeighbor", "op": "ResizeNearestNeighbor", "input": ["StatefulPartitionedCall/Skinny/tf.concat_17/concat", "StatefulPartitionedCall/Skinny/up_sampling2d_4/mul"], "attr": {"T": {"type": "DT_FLOAT"}, "align_corners": {"b": false}, "half_pixel_centers": {"b": true}}}, {"name": "StatefulPartitionedCall/Skinny/leaky_re_lu_62/LeakyRelu", "op": "_FusedConv2D", "input": ["StatefulPartitionedCall/Skinny/up_sampling2d_4/resize/ResizeNearestNeighbor", "StatefulPartitionedCall/Skinny/conv2d_82/Conv2D_weights", "StatefulPartitionedCall/Skinny/conv2d_82/Conv2D_bn_offset"], "device": "/device:CPU:0", "attr": {"strides": {"list": {"i": ["1", "1", "1", "1"]}}, "fused_ops": {"list": {"s": ["Qmlhc0FkZA==", "TGVha3lSZWx1"]}}, "explicit_paddings": {"list": {}}, "num_args": {"i": "1"}, "leakyrelu_alpha": {"f": 0.3}, "data_format": {"s": "TkhXQw=="}, "padding": {"s": "U0FNRQ=="}, "dilations": {"list": {"i": ["1", "1", "1", "1"]}}, "use_cudnn_on_gpu": {"b": true}, "T": {"type": "DT_FLOAT"}, "epsilon": {"f": 0.0}}}, {"name": "StatefulPartitionedCall/Skinny/tf.concat_19/concat", "op": "ConcatV2", "input": ["StatefulPartitionedCall/Skinny/leaky_re_lu_62/LeakyRelu", "StatefulPartitionedCall/Skinny/leaky_re_lu_63/LeakyRelu", "StatefulPartitionedCall/Skinny/leaky_re_lu_64/LeakyRelu", "StatefulPartitionedCall/Skinny/leaky_re_lu_65/LeakyRelu", "StatefulPartitionedCall/Skinny/tf.concat/concat", "StatefulPartitionedCall/Skinny/tf.concat_19/concat/axis"], "attr": {"N": {"i": "5"}, "T": {"type": "DT_FLOAT"}, "Tidx": {"type": "DT_INT32"}}}, {"name": "StatefulPartitionedCall/Skinny/max_pooling2d_15/MaxPool", "op": "MaxPool", "input": ["StatefulPartitionedCall/Skinny/tf.concat_19/concat"], "attr": {"data_format": {"s": "TkhXQw=="}, "explicit_paddings": {"list": {}}, "padding": {"s": "U0FNRQ=="}, "ksize": {"list": {"i": ["1", "2", "2", "1"]}}, "T": {"type": "DT_FLOAT"}, "strides": {"list": {"i": ["1", "1", "1", "1"]}}}}, {"name": "StatefulPartitionedCall/Skinny/leaky_re_lu_66/LeakyRelu", "op": "_FusedConv2D", "input": ["StatefulPartitionedCall/Skinny/tf.concat_19/concat", "StatefulPartitionedCall/Skinny/conv2d_86/Conv2D/ReadVariableOp", "StatefulPartitionedCall/Skinny/conv2d_86/BiasAdd/ReadVariableOp"], "device": "/device:CPU:0", "attr": {"num_args": {"i": "1"}, "strides": {"list": {"i": ["1", "1", "1", "1"]}}, "leakyrelu_alpha": {"f": 0.3}, "data_format": {"s": "TkhXQw=="}, "dilations": {"list": {"i": ["1", "1", "1", "1"]}}, "use_cudnn_on_gpu": {"b": true}, "fused_ops": {"list": {"s": ["Qmlhc0FkZA==", "TGVha3lSZWx1"]}}, "padding": {"s": "U0FNRQ=="}, "epsilon": {"f": 0.0}, "T": {"type": "DT_FLOAT"}, "explicit_paddings": {"list": {}}}}, {"name": "StatefulPartitionedCall/Skinny/conv2d_87/BiasAdd", "op": "_FusedConv2D", "input": ["StatefulPartitionedCall/Skinny/tf.concat_19/concat", "StatefulPartitionedCall/Skinny/conv2d_87/Conv2D/ReadVariableOp", "StatefulPartitionedCall/Skinny/conv2d_87/BiasAdd/ReadVariableOp"], "device": "/device:CPU:0", "attr": {"fused_ops": {"list": {"s": ["Qmlhc0FkZA=="]}}, "padding": {"s": "U0FNRQ=="}, "T": {"type": "DT_FLOAT"}, "explicit_paddings": {"list": {}}, "num_args": {"i": "1"}, "strides": {"list": {"i": ["1", "1", "1", "1"]}}, "data_format": {"s": "TkhXQw=="}, "use_cudnn_on_gpu": {"b": true}, "dilations": {"list": {"i": ["1", "1", "1", "1"]}}, "epsilon": {"f": 0.0}}}, {"name": "StatefulPartitionedCall/Skinny/conv2d_89/BiasAdd", "op": "_FusedConv2D", "input": ["StatefulPartitionedCall/Skinny/tf.concat_19/concat", "StatefulPartitionedCall/Skinny/conv2d_89/Conv2D/ReadVariableOp", "StatefulPartitionedCall/Skinny/conv2d_89/BiasAdd/ReadVariableOp"], "device": "/device:CPU:0", "attr": {"T": {"type": "DT_FLOAT"}, "data_format": {"s": "TkhXQw=="}, "explicit_paddings": {"list": {}}, "num_args": {"i": "1"}, "dilations": {"list": {"i": ["1", "1", "1", "1"]}}, "fused_ops": {"list": {"s": ["Qmlhc0FkZA=="]}}, "padding": {"s": "U0FNRQ=="}, "epsilon": {"f": 0.0}, "strides": {"list": {"i": ["1", "1", "1", "1"]}}, "use_cudnn_on_gpu": {"b": true}}}, {"name": "StatefulPartitionedCall/Skinny/leaky_re_lu_69/LeakyRelu", "op": "_FusedConv2D", "input": ["StatefulPartitionedCall/Skinny/max_pooling2d_15/MaxPool", "StatefulPartitionedCall/Skinny/conv2d_91/Conv2D/ReadVariableOp", "StatefulPartitionedCall/Skinny/conv2d_91/BiasAdd/ReadVariableOp"], "device": "/device:CPU:0", "attr": {"leakyrelu_alpha": {"f": 0.3}, "epsilon": {"f": 0.0}, "strides": {"list": {"i": ["1", "1", "1", "1"]}}, "use_cudnn_on_gpu": {"b": true}, "fused_ops": {"list": {"s": ["Qmlhc0FkZA==", "TGVha3lSZWx1"]}}, "padding": {"s": "U0FNRQ=="}, "T": {"type": "DT_FLOAT"}, "explicit_paddings": {"list": {}}, "data_format": {"s": "TkhXQw=="}, "dilations": {"list": {"i": ["1", "1", "1", "1"]}}, "num_args": {"i": "1"}}}, {"name": "StatefulPartitionedCall/Skinny/leaky_re_lu_67/LeakyRelu", "op": "_FusedConv2D", "input": ["StatefulPartitionedCall/Skinny/conv2d_87/BiasAdd", "StatefulPartitionedCall/Skinny/conv2d_88/Conv2D/ReadVariableOp", "StatefulPartitionedCall/Skinny/conv2d_88/BiasAdd/ReadVariableOp"], "device": "/device:CPU:0", "attr": {"dilations": {"list": {"i": ["1", "1", "1", "1"]}}, "epsilon": {"f": 0.0}, "use_cudnn_on_gpu": {"b": true}, "fused_ops": {"list": {"s": ["Qmlhc0FkZA==", "TGVha3lSZWx1"]}}, "strides": {"list": {"i": ["1", "1", "1", "1"]}}, "padding": {"s": "U0FNRQ=="}, "T": {"type": "DT_FLOAT"}, "explicit_paddings": {"list": {}}, "num_args": {"i": "1"}, "leakyrelu_alpha": {"f": 0.3}, "data_format": {"s": "TkhXQw=="}}}, {"name": "StatefulPartitionedCall/Skinny/leaky_re_lu_68/LeakyRelu", "op": "_FusedConv2D", "input": ["StatefulPartitionedCall/Skinny/conv2d_89/BiasAdd", "StatefulPartitionedCall/Skinny/conv2d_90/Conv2D/ReadVariableOp", "StatefulPartitionedCall/Skinny/conv2d_90/BiasAdd/ReadVariableOp"], "device": "/device:CPU:0", "attr": {"num_args": {"i": "1"}, "leakyrelu_alpha": {"f": 0.3}, "data_format": {"s": "TkhXQw=="}, "padding": {"s": "U0FNRQ=="}, "T": {"type": "DT_FLOAT"}, "dilations": {"list": {"i": ["1", "1", "1", "1"]}}, "epsilon": {"f": 0.0}, "use_cudnn_on_gpu": {"b": true}, "strides": {"list": {"i": ["1", "1", "1", "1"]}}, "fused_ops": {"list": {"s": ["Qmlhc0FkZA==", "TGVha3lSZWx1"]}}, "explicit_paddings": {"list": {}}}}, {"name": "StatefulPartitionedCall/Skinny/tf.concat_20/concat", "op": "ConcatV2", "input": ["StatefulPartitionedCall/Skinny/leaky_re_lu_66/LeakyRelu", "StatefulPartitionedCall/Skinny/leaky_re_lu_67/LeakyRelu", "StatefulPartitionedCall/Skinny/leaky_re_lu_68/LeakyRelu", "StatefulPartitionedCall/Skinny/leaky_re_lu_69/LeakyRelu", "StatefulPartitionedCall/Skinny/tf.concat_20/concat/axis"], "attr": {"N": {"i": "4"}, "T": {"type": "DT_FLOAT"}, "Tidx": {"type": "DT_INT32"}}}, {"name": "StatefulPartitionedCall/Skinny/leaky_re_lu_70/LeakyRelu", "op": "_FusedConv2D", "input": ["StatefulPartitionedCall/Skinny/tf.concat_20/concat", "StatefulPartitionedCall/Skinny/conv2d_92/Conv2D/ReadVariableOp", "StatefulPartitionedCall/Skinny/conv2d_92/BiasAdd/ReadVariableOp"], "device": "/device:CPU:0", "attr": {"use_cudnn_on_gpu": {"b": true}, "fused_ops": {"list": {"s": ["Qmlhc0FkZA==", "TGVha3lSZWx1"]}}, "strides": {"list": {"i": ["1", "1", "1", "1"]}}, "data_format": {"s": "TkhXQw=="}, "explicit_paddings": {"list": {}}, "padding": {"s": "U0FNRQ=="}, "leakyrelu_alpha": {"f": 0.3}, "num_args": {"i": "1"}, "dilations": {"list": {"i": ["1", "1", "1", "1"]}}, "epsilon": {"f": 0.0}, "T": {"type": "DT_FLOAT"}}}, {"name": "StatefulPartitionedCall/Skinny/leaky_re_lu_71/LeakyRelu", "op": "_FusedConv2D", "input": ["StatefulPartitionedCall/Skinny/leaky_re_lu_70/LeakyRelu", "StatefulPartitionedCall/Skinny/conv2d_93/Conv2D/ReadVariableOp", "StatefulPartitionedCall/Skinny/conv2d_93/BiasAdd/ReadVariableOp"], "device": "/device:CPU:0", "attr": {"explicit_paddings": {"list": {}}, "leakyrelu_alpha": {"f": 0.3}, "num_args": {"i": "1"}, "data_format": {"s": "TkhXQw=="}, "strides": {"list": {"i": ["1", "1", "1", "1"]}}, "fused_ops": {"list": {"s": ["Qmlhc0FkZA==", "TGVha3lSZWx1"]}}, "padding": {"s": "U0FNRQ=="}, "epsilon": {"f": 0.0}, "use_cudnn_on_gpu": {"b": true}, "dilations": {"list": {"i": ["1", "1", "1", "1"]}}, "T": {"type": "DT_FLOAT"}}}, {"name": "StatefulPartitionedCall/Skinny/label/BiasAdd", "op": "_FusedConv2D", "input": ["StatefulPartitionedCall/Skinny/leaky_re_lu_71/LeakyRelu", "StatefulPartitionedCall/Skinny/label/Conv2D/ReadVariableOp", "StatefulPartitionedCall/Skinny/label/BiasAdd/ReadVariableOp"], "device": "/device:CPU:0", "attr": {"epsilon": {"f": 0.0}, "use_cudnn_on_gpu": {"b": true}, "dilations": {"list": {"i": ["1", "1", "1", "1"]}}, "fused_ops": {"list": {"s": ["Qmlhc0FkZA=="]}}, "padding": {"s": "U0FNRQ=="}, "T": {"type": "DT_FLOAT"}, "explicit_paddings": {"list": {}}, "num_args": {"i": "1"}, "data_format": {"s": "TkhXQw=="}, "strides": {"list": {"i": ["1", "1", "1", "1"]}}}}, {"name": "StatefulPartitionedCall/Skinny/label/Sigmoid", "op": "Sigmoid", "input": ["StatefulPartitionedCall/Skinny/label/BiasAdd"], "attr": {"T": {"type": "DT_FLOAT"}}}, {"name": "Identity", "op": "Identity", "input": ["StatefulPartitionedCall/Skinny/label/Sigmoid"], "attr": {"T": {"type": "DT_FLOAT"}}}], "library": {}, "versions": {"producer": 987}}, "weightsManifest": [{"paths": ["group1-shard1of7.bin", "group1-shard2of7.bin", "group1-shard3of7.bin", "group1-shard4of7.bin", "group1-shard5of7.bin", "group1-shard6of7.bin", "group1-shard7of7.bin"], "weights": [{"name": "StatefulPartitionedCall/Skinny/conv2d_86/Conv2D/ReadVariableOp", "shape": [1, 1, 50, 4], "dtype": "float32"}, {"name": "StatefulPartitionedCall/Skinny/conv2d_86/BiasAdd/ReadVariableOp", "shape": [4], "dtype": "float32"}, {"name": "StatefulPartitionedCall/Skinny/conv2d_87/Conv2D/ReadVariableOp", "shape": [1, 1, 50, 4], "dtype": "float32"}, {"name": "StatefulPartitionedCall/Skinny/conv2d_87/BiasAdd/ReadVariableOp", "shape": [4], "dtype": "float32"}, {"name": "StatefulPartitionedCall/Skinny/conv2d_88/Conv2D/ReadVariableOp", "shape": [3, 3, 4, 4], "dtype": "float32"}, {"name": "StatefulPartitionedCall/Skinny/conv2d_88/BiasAdd/ReadVariableOp", "shape": [4], "dtype": "float32"}, {"name": "StatefulPartitionedCall/Skinny/conv2d_89/Conv2D/ReadVariableOp", "shape": [1, 1, 50, 4], "dtype": "float32"}, {"name": "StatefulPartitionedCall/Skinny/conv2d_89/BiasAdd/ReadVariableOp", "shape": [4], "dtype": "float32"}, {"name": "StatefulPartitionedCall/Skinny/conv2d_90/Conv2D/ReadVariableOp", "shape": [5, 5, 4, 4], "dtype": "float32"}, {"name": "StatefulPartitionedCall/Skinny/conv2d_90/BiasAdd/ReadVariableOp", "shape": [4], "dtype": "float32"}, {"name": "StatefulPartitionedCall/Skinny/conv2d_76/Conv2D/ReadVariableOp", "shape": [1, 1, 106, 9], "dtype": "float32"}, {"name": "StatefulPartitionedCall/Skinny/conv2d_76/BiasAdd/ReadVariableOp", "shape": [9], "dtype": "float32"}, {"name": "StatefulPartitionedCall/Skinny/conv2d_77/Conv2D/ReadVariableOp", "shape": [1, 1, 106, 9], "dtype": "float32"}, {"name": "StatefulPartitionedCall/Skinny/conv2d_77/BiasAdd/ReadVariableOp", "shape": [9], "dtype": "float32"}, {"name": "StatefulPartitionedCall/Skinny/conv2d_78/Conv2D/ReadVariableOp", "shape": [3, 3, 9, 9], "dtype": "float32"}, {"name": "StatefulPartitionedCall/Skinny/conv2d_78/BiasAdd/ReadVariableOp", "shape": [9], "dtype": "float32"}, {"name": "StatefulPartitionedCall/Skinny/conv2d_79/Conv2D/ReadVariableOp", "shape": [1, 1, 106, 9], "dtype": "float32"}, {"name": "StatefulPartitionedCall/Skinny/conv2d_79/BiasAdd/ReadVariableOp", "shape": [9], "dtype": "float32"}, {"name": "StatefulPartitionedCall/Skinny/conv2d_80/Conv2D/ReadVariableOp", "shape": [5, 5, 9, 9], "dtype": "float32"}, {"name": "StatefulPartitionedCall/Skinny/conv2d_80/BiasAdd/ReadVariableOp", "shape": [9], "dtype": "float32"}, {"name": "StatefulPartitionedCall/Skinny/conv2d_66/Conv2D/ReadVariableOp", "shape": [1, 1, 218, 19], "dtype": "float32"}, {"name": "StatefulPartitionedCall/Skinny/conv2d_66/BiasAdd/ReadVariableOp", "shape": [19], "dtype": "float32"}, {"name": "StatefulPartitionedCall/Skinny/conv2d_67/Conv2D/ReadVariableOp", "shape": [1, 1, 218, 19], "dtype": "float32"}, {"name": "StatefulPartitionedCall/Skinny/conv2d_67/BiasAdd/ReadVariableOp", "shape": [19], "dtype": "float32"}, {"name": "StatefulPartitionedCall/Skinny/conv2d_68/Conv2D/ReadVariableOp", "shape": [3, 3, 19, 19], "dtype": "float32"}, {"name": "StatefulPartitionedCall/Skinny/conv2d_68/BiasAdd/ReadVariableOp", "shape": [19], "dtype": "float32"}, {"name": "StatefulPartitionedCall/Skinny/conv2d_69/Conv2D/ReadVariableOp", "shape": [1, 1, 218, 19], "dtype": "float32"}, {"name": "StatefulPartitionedCall/Skinny/conv2d_69/BiasAdd/ReadVariableOp", "shape": [19], "dtype": "float32"}, {"name": "StatefulPartitionedCall/Skinny/conv2d_70/Conv2D/ReadVariableOp", "shape": [5, 5, 19, 19], "dtype": "float32"}, {"name": "StatefulPartitionedCall/Skinny/conv2d_70/BiasAdd/ReadVariableOp", "shape": [19], "dtype": "float32"}, {"name": "StatefulPartitionedCall/Skinny/conv2d_56/Conv2D/ReadVariableOp", "shape": [1, 1, 437, 38], "dtype": "float32"}, {"name": "StatefulPartitionedCall/Skinny/conv2d_56/BiasAdd/ReadVariableOp", "shape": [38], "dtype": "float32"}, {"name": "StatefulPartitionedCall/Skinny/conv2d_57/Conv2D/ReadVariableOp", "shape": [1, 1, 437, 38], "dtype": "float32"}, {"name": "StatefulPartitionedCall/Skinny/conv2d_57/BiasAdd/ReadVariableOp", "shape": [38], "dtype": "float32"}, {"name": "StatefulPartitionedCall/Skinny/conv2d_58/Conv2D/ReadVariableOp", "shape": [3, 3, 38, 38], "dtype": "float32"}, {"name": "StatefulPartitionedCall/Skinny/conv2d_58/BiasAdd/ReadVariableOp", "shape": [38], "dtype": "float32"}, {"name": "StatefulPartitionedCall/Skinny/conv2d_59/Conv2D/ReadVariableOp", "shape": [1, 1, 437, 38], "dtype": "float32"}, {"name": "StatefulPartitionedCall/Skinny/conv2d_59/BiasAdd/ReadVariableOp", "shape": [38], "dtype": "float32"}, {"name": "StatefulPartitionedCall/Skinny/conv2d_60/Conv2D/ReadVariableOp", "shape": [5, 5, 38, 38], "dtype": "float32"}, {"name": "StatefulPartitionedCall/Skinny/conv2d_60/BiasAdd/ReadVariableOp", "shape": [38], "dtype": "float32"}, {"name": "StatefulPartitionedCall/Skinny/conv2d_46/Conv2D/ReadVariableOp", "shape": [1, 1, 874, 76], "dtype": "float32"}, {"name": "StatefulPartitionedCall/Skinny/conv2d_46/BiasAdd/ReadVariableOp", "shape": [76], "dtype": "float32"}, {"name": "StatefulPartitionedCall/Skinny/conv2d_47/Conv2D/ReadVariableOp", "shape": [1, 1, 874, 76], "dtype": "float32"}, {"name": "StatefulPartitionedCall/Skinny/conv2d_47/BiasAdd/ReadVariableOp", "shape": [76], "dtype": "float32"}, {"name": "StatefulPartitionedCall/Skinny/conv2d_48/Conv2D/ReadVariableOp", "shape": [3, 3, 76, 76], "dtype": "float32"}, {"name": "StatefulPartitionedCall/Skinny/conv2d_48/BiasAdd/ReadVariableOp", "shape": [76], "dtype": "float32"}, {"name": "StatefulPartitionedCall/Skinny/conv2d_49/Conv2D/ReadVariableOp", "shape": [1, 1, 874, 76], "dtype": "float32"}, {"name": "StatefulPartitionedCall/Skinny/conv2d_49/BiasAdd/ReadVariableOp", "shape": [76], "dtype": "float32"}, {"name": "StatefulPartitionedCall/Skinny/conv2d_50/Conv2D/ReadVariableOp", "shape": [5, 5, 76, 76], "dtype": "float32"}, {"name": "StatefulPartitionedCall/Skinny/conv2d_50/BiasAdd/ReadVariableOp", "shape": [76], "dtype": "float32"}, {"name": "StatefulPartitionedCall/Skinny/conv2d_36/Conv2D/ReadVariableOp", "shape": [1, 1, 608, 152], "dtype": "float32"}, {"name": "StatefulPartitionedCall/Skinny/conv2d_36/BiasAdd/ReadVariableOp", "shape": [152], "dtype": "float32"}, {"name": "StatefulPartitionedCall/Skinny/conv2d_37/Conv2D/ReadVariableOp", "shape": [1, 1, 608, 152], "dtype": "float32"}, {"name": "StatefulPartitionedCall/Skinny/conv2d_37/BiasAdd/ReadVariableOp", "shape": [152], "dtype": "float32"}, {"name": "StatefulPartitionedCall/Skinny/conv2d_38/Conv2D/ReadVariableOp", "shape": [3, 3, 152, 152], "dtype": "float32"}, {"name": "StatefulPartitionedCall/Skinny/conv2d_38/BiasAdd/ReadVariableOp", "shape": [152], "dtype": "float32"}, {"name": "StatefulPartitionedCall/Skinny/conv2d_39/Conv2D/ReadVariableOp", "shape": [1, 1, 608, 152], "dtype": "float32"}, {"name": "StatefulPartitionedCall/Skinny/conv2d_39/BiasAdd/ReadVariableOp", "shape": [152], "dtype": "float32"}, {"name": "StatefulPartitionedCall/Skinny/conv2d_40/Conv2D/ReadVariableOp", "shape": [5, 5, 152, 152], "dtype": "float32"}, {"name": "StatefulPartitionedCall/Skinny/conv2d_40/BiasAdd/ReadVariableOp", "shape": [152], "dtype": "float32"}, {"name": "StatefulPartitionedCall/Skinny/conv2d_41/Conv2D/ReadVariableOp", "shape": [1, 1, 608, 152], "dtype": "float32"}, {"name": "StatefulPartitionedCall/Skinny/conv2d_41/BiasAdd/ReadVariableOp", "shape": [152], "dtype": "float32"}, {"name": "StatefulPartitionedCall/Skinny/tf.concat_5/concat/axis", "shape": [], "dtype": "int32"}, {"name": "StatefulPartitionedCall/Skinny/up_sampling2d/strided_slice/stack", "shape": [1], "dtype": "int32"}, {"name": "StatefulPartitionedCall/Skinny/up_sampling2d/strided_slice/stack_1", "shape": [1], "dtype": "int32"}, {"name": "StatefulPartitionedCall/Skinny/up_sampling2d/strided_slice/stack_2", "shape": [1], "dtype": "int32"}, {"name": "StatefulPartitionedCall/Skinny/up_sampling2d/Const", "shape": [2], "dtype": "int32"}, {"name": "StatefulPartitionedCall/Skinny/conv2d_29/Conv2D/ReadVariableOp", "shape": [1, 1, 304, 76], "dtype": "float32"}, {"name": "StatefulPartitionedCall/Skinny/conv2d_29/BiasAdd/ReadVariableOp", "shape": [76], "dtype": "float32"}, {"name": "StatefulPartitionedCall/Skinny/conv2d_30/Conv2D/ReadVariableOp", "shape": [1, 1, 304, 76], "dtype": "float32"}, {"name": "StatefulPartitionedCall/Skinny/conv2d_30/BiasAdd/ReadVariableOp", "shape": [76], "dtype": "float32"}, {"name": "StatefulPartitionedCall/Skinny/conv2d_31/Conv2D/ReadVariableOp", "shape": [3, 3, 76, 76], "dtype": "float32"}, {"name": "StatefulPartitionedCall/Skinny/conv2d_31/BiasAdd/ReadVariableOp", "shape": [76], "dtype": "float32"}, {"name": "StatefulPartitionedCall/Skinny/conv2d_32/Conv2D/ReadVariableOp", "shape": [1, 1, 304, 76], "dtype": "float32"}, {"name": "StatefulPartitionedCall/Skinny/conv2d_32/BiasAdd/ReadVariableOp", "shape": [76], "dtype": "float32"}, {"name": "StatefulPartitionedCall/Skinny/conv2d_33/Conv2D/ReadVariableOp", "shape": [5, 5, 76, 76], "dtype": "float32"}, {"name": "StatefulPartitionedCall/Skinny/conv2d_33/BiasAdd/ReadVariableOp", "shape": [76], "dtype": "float32"}, {"name": "StatefulPartitionedCall/Skinny/conv2d_34/Conv2D/ReadVariableOp", "shape": [1, 1, 304, 76], "dtype": "float32"}, {"name": "StatefulPartitionedCall/Skinny/conv2d_34/BiasAdd/ReadVariableOp", "shape": [76], "dtype": "float32"}, {"name": "StatefulPartitionedCall/Skinny/tf.concat_4/concat/axis", "shape": [], "dtype": "int32"}, {"name": "StatefulPartitionedCall/Skinny/tf.concat_7/concat/axis", "shape": [], "dtype": "int32"}, {"name": "StatefulPartitionedCall/Skinny/conv2d_51/Conv2D/ReadVariableOp", "shape": [1, 1, 874, 76], "dtype": "float32"}, {"name": "StatefulPartitionedCall/Skinny/conv2d_51/BiasAdd/ReadVariableOp", "shape": [76], "dtype": "float32"}, {"name": "StatefulPartitionedCall/Skinny/tf.concat_8/concat/axis", "shape": [], "dtype": "int32"}, {"name": "StatefulPartitionedCall/Skinny/up_sampling2d_1/strided_slice/stack", "shape": [1], "dtype": "int32"}, {"name": "StatefulPartitionedCall/Skinny/up_sampling2d_1/strided_slice/stack_1", "shape": [1], "dtype": "int32"}, {"name": "StatefulPartitionedCall/Skinny/up_sampling2d_1/strided_slice/stack_2", "shape": [1], "dtype": "int32"}, {"name": "StatefulPartitionedCall/Skinny/up_sampling2d_1/Const", "shape": [2], "dtype": "int32"}, {"name": "StatefulPartitionedCall/Skinny/conv2d_22/Conv2D/ReadVariableOp", "shape": [1, 1, 152, 38], "dtype": "float32"}, {"name": "StatefulPartitionedCall/Skinny/conv2d_22/BiasAdd/ReadVariableOp", "shape": [38], "dtype": "float32"}, {"name": "StatefulPartitionedCall/Skinny/conv2d_23/Conv2D/ReadVariableOp", "shape": [1, 1, 152, 38], "dtype": "float32"}, {"name": "StatefulPartitionedCall/Skinny/conv2d_23/BiasAdd/ReadVariableOp", "shape": [38], "dtype": "float32"}, {"name": "StatefulPartitionedCall/Skinny/conv2d_24/Conv2D/ReadVariableOp", "shape": [3, 3, 38, 38], "dtype": "float32"}, {"name": "StatefulPartitionedCall/Skinny/conv2d_24/BiasAdd/ReadVariableOp", "shape": [38], "dtype": "float32"}, {"name": "StatefulPartitionedCall/Skinny/conv2d_25/Conv2D/ReadVariableOp", "shape": [1, 1, 152, 38], "dtype": "float32"}, {"name": "StatefulPartitionedCall/Skinny/conv2d_25/BiasAdd/ReadVariableOp", "shape": [38], "dtype": "float32"}, {"name": "StatefulPartitionedCall/Skinny/conv2d_26/Conv2D/ReadVariableOp", "shape": [5, 5, 38, 38], "dtype": "float32"}, {"name": "StatefulPartitionedCall/Skinny/conv2d_26/BiasAdd/ReadVariableOp", "shape": [38], "dtype": "float32"}, {"name": "StatefulPartitionedCall/Skinny/conv2d_27/Conv2D/ReadVariableOp", "shape": [1, 1, 152, 38], "dtype": "float32"}, {"name": "StatefulPartitionedCall/Skinny/conv2d_27/BiasAdd/ReadVariableOp", "shape": [38], "dtype": "float32"}, {"name": "StatefulPartitionedCall/Skinny/tf.concat_3/concat/axis", "shape": [], "dtype": "int32"}, {"name": "StatefulPartitionedCall/Skinny/tf.concat_10/concat/axis", "shape": [], "dtype": "int32"}, {"name": "StatefulPartitionedCall/Skinny/conv2d_61/Conv2D/ReadVariableOp", "shape": [1, 1, 437, 38], "dtype": "float32"}, {"name": "StatefulPartitionedCall/Skinny/conv2d_61/BiasAdd/ReadVariableOp", "shape": [38], "dtype": "float32"}, {"name": "StatefulPartitionedCall/Skinny/tf.concat_11/concat/axis", "shape": [], "dtype": "int32"}, {"name": "StatefulPartitionedCall/Skinny/up_sampling2d_2/strided_slice/stack", "shape": [1], "dtype": "int32"}, {"name": "StatefulPartitionedCall/Skinny/up_sampling2d_2/strided_slice/stack_1", "shape": [1], "dtype": "int32"}, {"name": "StatefulPartitionedCall/Skinny/up_sampling2d_2/strided_slice/stack_2", "shape": [1], "dtype": "int32"}, {"name": "StatefulPartitionedCall/Skinny/up_sampling2d_2/Const", "shape": [2], "dtype": "int32"}, {"name": "StatefulPartitionedCall/Skinny/conv2d_15/Conv2D/ReadVariableOp", "shape": [1, 1, 76, 19], "dtype": "float32"}, {"name": "StatefulPartitionedCall/Skinny/conv2d_15/BiasAdd/ReadVariableOp", "shape": [19], "dtype": "float32"}, {"name": "StatefulPartitionedCall/Skinny/conv2d_16/Conv2D/ReadVariableOp", "shape": [1, 1, 76, 19], "dtype": "float32"}, {"name": "StatefulPartitionedCall/Skinny/conv2d_16/BiasAdd/ReadVariableOp", "shape": [19], "dtype": "float32"}, {"name": "StatefulPartitionedCall/Skinny/conv2d_17/Conv2D/ReadVariableOp", "shape": [3, 3, 19, 19], "dtype": "float32"}, {"name": "StatefulPartitionedCall/Skinny/conv2d_17/BiasAdd/ReadVariableOp", "shape": [19], "dtype": "float32"}, {"name": "StatefulPartitionedCall/Skinny/conv2d_18/Conv2D/ReadVariableOp", "shape": [1, 1, 76, 19], "dtype": "float32"}, {"name": "StatefulPartitionedCall/Skinny/conv2d_18/BiasAdd/ReadVariableOp", "shape": [19], "dtype": "float32"}, {"name": "StatefulPartitionedCall/Skinny/conv2d_19/Conv2D/ReadVariableOp", "shape": [5, 5, 19, 19], "dtype": "float32"}, {"name": "StatefulPartitionedCall/Skinny/conv2d_19/BiasAdd/ReadVariableOp", "shape": [19], "dtype": "float32"}, {"name": "StatefulPartitionedCall/Skinny/conv2d_20/Conv2D/ReadVariableOp", "shape": [1, 1, 76, 19], "dtype": "float32"}, {"name": "StatefulPartitionedCall/Skinny/conv2d_20/BiasAdd/ReadVariableOp", "shape": [19], "dtype": "float32"}, {"name": "StatefulPartitionedCall/Skinny/tf.concat_2/concat/axis", "shape": [], "dtype": "int32"}, {"name": "StatefulPartitionedCall/Skinny/tf.concat_13/concat/axis", "shape": [], "dtype": "int32"}, {"name": "StatefulPartitionedCall/Skinny/conv2d_71/Conv2D/ReadVariableOp", "shape": [1, 1, 218, 19], "dtype": "float32"}, {"name": "StatefulPartitionedCall/Skinny/conv2d_71/BiasAdd/ReadVariableOp", "shape": [19], "dtype": "float32"}, {"name": "StatefulPartitionedCall/Skinny/tf.concat_14/concat/axis", "shape": [], "dtype": "int32"}, {"name": "StatefulPartitionedCall/Skinny/up_sampling2d_3/strided_slice/stack", "shape": [1], "dtype": "int32"}, {"name": "StatefulPartitionedCall/Skinny/up_sampling2d_3/strided_slice/stack_1", "shape": [1], "dtype": "int32"}, {"name": "StatefulPartitionedCall/Skinny/up_sampling2d_3/strided_slice/stack_2", "shape": [1], "dtype": "int32"}, {"name": "StatefulPartitionedCall/Skinny/up_sampling2d_3/Const", "shape": [2], "dtype": "int32"}, {"name": "StatefulPartitionedCall/Skinny/conv2d_8/Conv2D/ReadVariableOp", "shape": [1, 1, 38, 9], "dtype": "float32"}, {"name": "StatefulPartitionedCall/Skinny/conv2d_8/BiasAdd/ReadVariableOp", "shape": [9], "dtype": "float32"}, {"name": "StatefulPartitionedCall/Skinny/conv2d_9/Conv2D/ReadVariableOp", "shape": [1, 1, 38, 9], "dtype": "float32"}, {"name": "StatefulPartitionedCall/Skinny/conv2d_9/BiasAdd/ReadVariableOp", "shape": [9], "dtype": "float32"}, {"name": "StatefulPartitionedCall/Skinny/conv2d_10/Conv2D/ReadVariableOp", "shape": [3, 3, 9, 9], "dtype": "float32"}, {"name": "StatefulPartitionedCall/Skinny/conv2d_10/BiasAdd/ReadVariableOp", "shape": [9], "dtype": "float32"}, {"name": "StatefulPartitionedCall/Skinny/conv2d_11/Conv2D/ReadVariableOp", "shape": [1, 1, 38, 9], "dtype": "float32"}, {"name": "StatefulPartitionedCall/Skinny/conv2d_11/BiasAdd/ReadVariableOp", "shape": [9], "dtype": "float32"}, {"name": "StatefulPartitionedCall/Skinny/conv2d_12/Conv2D/ReadVariableOp", "shape": [5, 5, 9, 9], "dtype": "float32"}, {"name": "StatefulPartitionedCall/Skinny/conv2d_12/BiasAdd/ReadVariableOp", "shape": [9], "dtype": "float32"}, {"name": "StatefulPartitionedCall/Skinny/conv2d_13/Conv2D/ReadVariableOp", "shape": [1, 1, 38, 9], "dtype": "float32"}, {"name": "StatefulPartitionedCall/Skinny/conv2d_13/BiasAdd/ReadVariableOp", "shape": [9], "dtype": "float32"}, {"name": "StatefulPartitionedCall/Skinny/tf.concat_1/concat/axis", "shape": [], "dtype": "int32"}, {"name": "StatefulPartitionedCall/Skinny/tf.concat_16/concat/axis", "shape": [], "dtype": "int32"}, {"name": "StatefulPartitionedCall/Skinny/conv2d_81/Conv2D/ReadVariableOp", "shape": [1, 1, 106, 9], "dtype": "float32"}, {"name": "StatefulPartitionedCall/Skinny/conv2d_81/BiasAdd/ReadVariableOp", "shape": [9], "dtype": "float32"}, {"name": "StatefulPartitionedCall/Skinny/tf.concat_17/concat/axis", "shape": [], "dtype": "int32"}, {"name": "StatefulPartitionedCall/Skinny/up_sampling2d_4/strided_slice/stack", "shape": [1], "dtype": "int32"}, {"name": "StatefulPartitionedCall/Skinny/up_sampling2d_4/strided_slice/stack_1", "shape": [1], "dtype": "int32"}, {"name": "StatefulPartitionedCall/Skinny/up_sampling2d_4/strided_slice/stack_2", "shape": [1], "dtype": "int32"}, {"name": "StatefulPartitionedCall/Skinny/up_sampling2d_4/Const", "shape": [2], "dtype": "int32"}, {"name": "StatefulPartitionedCall/Skinny/conv2d_1/Conv2D/ReadVariableOp", "shape": [1, 1, 19, 4], "dtype": "float32"}, {"name": "StatefulPartitionedCall/Skinny/conv2d_1/BiasAdd/ReadVariableOp", "shape": [4], "dtype": "float32"}, {"name": "StatefulPartitionedCall/Skinny/conv2d_2/Conv2D/ReadVariableOp", "shape": [1, 1, 19, 4], "dtype": "float32"}, {"name": "StatefulPartitionedCall/Skinny/conv2d_2/BiasAdd/ReadVariableOp", "shape": [4], "dtype": "float32"}, {"name": "StatefulPartitionedCall/Skinny/conv2d_3/Conv2D/ReadVariableOp", "shape": [3, 3, 4, 4], "dtype": "float32"}, {"name": "StatefulPartitionedCall/Skinny/conv2d_3/BiasAdd/ReadVariableOp", "shape": [4], "dtype": "float32"}, {"name": "StatefulPartitionedCall/Skinny/conv2d_4/Conv2D/ReadVariableOp", "shape": [1, 1, 19, 4], "dtype": "float32"}, {"name": "StatefulPartitionedCall/Skinny/conv2d_4/BiasAdd/ReadVariableOp", "shape": [4], "dtype": "float32"}, {"name": "StatefulPartitionedCall/Skinny/conv2d_5/Conv2D/ReadVariableOp", "shape": [5, 5, 4, 4], "dtype": "float32"}, {"name": "StatefulPartitionedCall/Skinny/conv2d_5/BiasAdd/ReadVariableOp", "shape": [4], "dtype": "float32"}, {"name": "StatefulPartitionedCall/Skinny/conv2d_6/Conv2D/ReadVariableOp", "shape": [1, 1, 19, 4], "dtype": "float32"}, {"name": "StatefulPartitionedCall/Skinny/conv2d_6/BiasAdd/ReadVariableOp", "shape": [4], "dtype": "float32"}, {"name": "StatefulPartitionedCall/Skinny/tf.concat/concat/axis", "shape": [], "dtype": "int32"}, {"name": "StatefulPartitionedCall/Skinny/tf.concat_19/concat/axis", "shape": [], "dtype": "int32"}, {"name": "StatefulPartitionedCall/Skinny/conv2d_91/Conv2D/ReadVariableOp", "shape": [1, 1, 50, 4], "dtype": "float32"}, {"name": "StatefulPartitionedCall/Skinny/conv2d_91/BiasAdd/ReadVariableOp", "shape": [4], "dtype": "float32"}, {"name": "StatefulPartitionedCall/Skinny/tf.concat_20/concat/axis", "shape": [], "dtype": "int32"}, {"name": "StatefulPartitionedCall/Skinny/conv2d_92/Conv2D/ReadVariableOp", "shape": [3, 3, 16, 19], "dtype": "float32"}, {"name": "StatefulPartitionedCall/Skinny/conv2d_92/BiasAdd/ReadVariableOp", "shape": [19], "dtype": "float32"}, {"name": "StatefulPartitionedCall/Skinny/conv2d_93/Conv2D/ReadVariableOp", "shape": [3, 3, 19, 9], "dtype": "float32"}, {"name": "StatefulPartitionedCall/Skinny/conv2d_93/BiasAdd/ReadVariableOp", "shape": [9], "dtype": "float32"}, {"name": "StatefulPartitionedCall/Skinny/label/Conv2D/ReadVariableOp", "shape": [3, 3, 9, 1], "dtype": "float32"}, {"name": "StatefulPartitionedCall/Skinny/label/BiasAdd/ReadVariableOp", "shape": [1], "dtype": "float32"}, {"name": "StatefulPartitionedCall/Skinny/conv2d/Conv2D_weights", "shape": [3, 3, 3, 19], "dtype": "float32"}, {"name": "StatefulPartitionedCall/Skinny/conv2d/Conv2D_bn_offset", "shape": [19], "dtype": "float32"}, {"name": "StatefulPartitionedCall/Skinny/conv2d_44/Conv2D_weights", "shape": [3, 3, 152, 76], "dtype": "float32"}, {"name": "StatefulPartitionedCall/Skinny/conv2d_83/Conv2D_weights", "shape": [3, 3, 16, 9], "dtype": "float32"}, {"name": "StatefulPartitionedCall/Skinny/conv2d_83/Conv2D_bn_offset", "shape": [9], "dtype": "float32"}, {"name": "StatefulPartitionedCall/Skinny/conv2d_44/Conv2D_bn_offset", "shape": [76], "dtype": "float32"}, {"name": "StatefulPartitionedCall/Skinny/conv2d_7/Conv2D_weights", "shape": [3, 3, 16, 38], "dtype": "float32"}, {"name": "StatefulPartitionedCall/Skinny/conv2d_7/Conv2D_bn_offset", "shape": [38], "dtype": "float32"}, {"name": "StatefulPartitionedCall/Skinny/conv2d_45/Conv2D_weights", "shape": [3, 3, 76, 38], "dtype": "float32"}, {"name": "StatefulPartitionedCall/Skinny/conv2d_45/Conv2D_bn_offset", "shape": [38], "dtype": "float32"}, {"name": "StatefulPartitionedCall/Skinny/conv2d_42/Conv2D_weights", "shape": [3, 3, 608, 304], "dtype": "float32"}, {"name": "StatefulPartitionedCall/Skinny/conv2d_42/Conv2D_bn_offset", "shape": [304], "dtype": "float32"}, {"name": "StatefulPartitionedCall/Skinny/conv2d_84/Conv2D_weights", "shape": [3, 3, 9, 4], "dtype": "float32"}, {"name": "StatefulPartitionedCall/Skinny/conv2d_84/Conv2D_bn_offset", "shape": [4], "dtype": "float32"}, {"name": "StatefulPartitionedCall/Skinny/conv2d_85/Conv2D_weights", "shape": [3, 3, 4, 2], "dtype": "float32"}, {"name": "StatefulPartitionedCall/Skinny/conv2d_72/Conv2D_weights", "shape": [3, 3, 76, 38], "dtype": "float32"}, {"name": "StatefulPartitionedCall/Skinny/conv2d_85/Conv2D_bn_offset", "shape": [2], "dtype": "float32"}, {"name": "StatefulPartitionedCall/Skinny/conv2d_73/Conv2D_weights", "shape": [3, 3, 36, 19], "dtype": "float32"}, {"name": "StatefulPartitionedCall/Skinny/conv2d_73/Conv2D_bn_offset", "shape": [19], "dtype": "float32"}, {"name": "StatefulPartitionedCall/Skinny/conv2d_14/Conv2D_weights", "shape": [3, 3, 36, 76], "dtype": "float32"}, {"name": "StatefulPartitionedCall/Skinny/conv2d_72/Conv2D_bn_offset", "shape": [38], "dtype": "float32"}, {"name": "StatefulPartitionedCall/Skinny/conv2d_14/Conv2D_bn_offset", "shape": [76], "dtype": "float32"}, {"name": "StatefulPartitionedCall/Skinny/conv2d_74/Conv2D_weights", "shape": [3, 3, 19, 9], "dtype": "float32"}, {"name": "StatefulPartitionedCall/Skinny/conv2d_74/Conv2D_bn_offset", "shape": [9], "dtype": "float32"}, {"name": "StatefulPartitionedCall/Skinny/conv2d_75/Conv2D_weights", "shape": [3, 3, 9, 4], "dtype": "float32"}, {"name": "StatefulPartitionedCall/Skinny/conv2d_75/Conv2D_bn_offset", "shape": [4], "dtype": "float32"}, {"name": "StatefulPartitionedCall/Skinny/conv2d_63/Conv2D_weights", "shape": [3, 3, 76, 38], "dtype": "float32"}, {"name": "StatefulPartitionedCall/Skinny/conv2d_63/Conv2D_bn_offset", "shape": [38], "dtype": "float32"}, {"name": "StatefulPartitionedCall/Skinny/conv2d_52/Conv2D_weights", "shape": [3, 3, 304, 152], "dtype": "float32"}, {"name": "StatefulPartitionedCall/Skinny/conv2d_21/Conv2D_weights", "shape": [3, 3, 76, 152], "dtype": "float32"}, {"name": "StatefulPartitionedCall/Skinny/conv2d_21/Conv2D_bn_offset", "shape": [152], "dtype": "float32"}, {"name": "StatefulPartitionedCall/Skinny/conv2d_52/Conv2D_bn_offset", "shape": [152], "dtype": "float32"}, {"name": "StatefulPartitionedCall/Skinny/conv2d_64/Conv2D_weights", "shape": [3, 3, 38, 19], "dtype": "float32"}, {"name": "StatefulPartitionedCall/Skinny/conv2d_64/Conv2D_bn_offset", "shape": [19], "dtype": "float32"}, {"name": "StatefulPartitionedCall/Skinny/conv2d_65/Conv2D_weights", "shape": [3, 3, 19, 9], "dtype": "float32"}, {"name": "StatefulPartitionedCall/Skinny/conv2d_65/Conv2D_bn_offset", "shape": [9], "dtype": "float32"}, {"name": "StatefulPartitionedCall/Skinny/conv2d_53/Conv2D_weights", "shape": [3, 3, 152, 76], "dtype": "float32"}, {"name": "StatefulPartitionedCall/Skinny/conv2d_53/Conv2D_bn_offset", "shape": [76], "dtype": "float32"}, {"name": "StatefulPartitionedCall/Skinny/conv2d_28/Conv2D_weights", "shape": [3, 3, 152, 304], "dtype": "float32"}, {"name": "StatefulPartitionedCall/Skinny/conv2d_28/Conv2D_bn_offset", "shape": [304], "dtype": "float32"}, {"name": "StatefulPartitionedCall/Skinny/conv2d_62/Conv2D_weights", "shape": [3, 3, 152, 76], "dtype": "float32"}, {"name": "StatefulPartitionedCall/Skinny/conv2d_62/Conv2D_bn_offset", "shape": [76], "dtype": "float32"}, {"name": "StatefulPartitionedCall/Skinny/conv2d_54/Conv2D_weights", "shape": [3, 3, 76, 38], "dtype": "float32"}, {"name": "StatefulPartitionedCall/Skinny/conv2d_54/Conv2D_bn_offset", "shape": [38], "dtype": "float32"}, {"name": "StatefulPartitionedCall/Skinny/conv2d_55/Conv2D_weights", "shape": [3, 3, 38, 19], "dtype": "float32"}, {"name": "StatefulPartitionedCall/Skinny/conv2d_55/Conv2D_bn_offset", "shape": [19], "dtype": "float32"}, {"name": "StatefulPartitionedCall/Skinny/conv2d_43/Conv2D_weights", "shape": [3, 3, 304, 152], "dtype": "float32"}, {"name": "StatefulPartitionedCall/Skinny/conv2d_43/Conv2D_bn_offset", "shape": [152], "dtype": "float32"}, {"name": "StatefulPartitionedCall/Skinny/conv2d_35/Conv2D_weights", "shape": [3, 3, 304, 608], "dtype": "float32"}, {"name": "StatefulPartitionedCall/Skinny/conv2d_35/Conv2D_bn_offset", "shape": [608], "dtype": "float32"}, {"name": "StatefulPartitionedCall/Skinny/conv2d_82/Conv2D_weights", "shape": [3, 3, 36, 19], "dtype": "float32"}, {"name": "StatefulPartitionedCall/Skinny/conv2d_82/Conv2D_bn_offset", "shape": [19], "dtype": "float32"}]}]}